DQN_vanilla_2.pt (torch_old, 456397 bytes, 10 tensors)

conv1.weight f4 [8, 3, 5, 5]
000000 42 86 1b bc fb 82 c5 3c fe 32 2e 3d 8a c5 14 bc
       -0.009492459 0.024110308 0.0425291 -0.0090803
000010 68 e9 27 be 6c 0b a4 bd 20 d7 1b bd ba 75 65 3d
       -0.16397631 -0.08009991 -0.038046956 0.056020476
000020 79 0e e6 bc a3 35 1d be af bb 6a bd 4a 19 a6 bd
       -0.028083073 -0.15352492 -0.057307895 -0.08110292
000030 6f 59 85 bd 93 55 e4 3d 72 0f 1a bc 03 c6 83 be
       -0.06511199 0.111491345 -0.0094030965 -0.25737008
000040 09 f6 8e be f4 0d ba bd 69 2b f4 bd a6 40 7a bd
       -0.27922085 -0.090846926 -0.11922342 -0.06109681
000050 c0 ea 77 be 3e a3 15 be 0d 1a d6 bc 8c ce d2 bd
       -0.24210644 -0.14613053 -0.026135469 -0.10293302
000060 e2 0c 39 3d 29 87 64 bd 95 28 89 bc 67 9b c7 3d
       0.0451783 -0.05579296 -0.016742984 0.097464375
000070 15 fa ae bc 31 1d a5 bd 41 ae 87 3d 8e 9f f1 ba
       -0.021359483 -0.080622084 0.06625033 -0.0018434392
000080 e7 47 10 bb 99 9d 00 3b 9d 3d b7 3d 6a 44 52 bc
       -0.0022015513 0.0019625186 0.08947299 -0.012833694
000090 f1 a1 b8 bc 58 a0 b3 bd b5 84 e4 3d fb 44 f5 3c
       -0.022538157 -0.087708175 0.11158124 0.029940119
0000a0 ee 1b 19 bd c1 d1 95 be 6d 9c b8 bc d6 d0 e8 bd
       -0.03738015 -0.29261592 -0.022535527 -0.11367957
0000b0 c6 db 5e 3c 3c 13 80 be 3d 86 35 be af 82 81 bd
       0.013602203 -0.25014675 -0.17726989 -0.06323754
0000c0 9b df 82 3d aa d5 7b bc 7b c1 ea 3c 89 d6 c7 bc
       0.063903056 -0.015370766 0.028656712 -0.02439429
0000d0 5f cb b5 3d 8e f7 5f 3c e9 4c 73 bd 7f 65 87 3d
       0.088766806 0.0136698615 -0.05939952 0.06611156
0000e0 cc 71 28 bd f6 ce 5f 3d 63 44 8d 3d 0b f0 cd bd
       -0.04112415 0.054640733 0.06897809 -0.1005555
0000f0 59 cc 43 3b 5e 28 22 3d ab 4f 3d bd 47 35 ee bd
       0.002987644 0.03958928 -0.046218555 -0.116312556
000100 ee 6c 7c 3d ef 19 b5 3d 60 43 db bd 72 db 39 3d
       0.06162732 0.08842837 -0.1070621 0.045375295
000110 46 b3 3a 3d dd b2 f1 bc 35 aa e7 bc be 74 1c 3c
       0.045581125 -0.029504234 -0.028279403 0.009549318
000120 6a ff 28 3d 26 52 7d 3d 5e 3a 9a bd 88 1f a6 bd
       0.041259207 0.06184592 -0.07530664 -0.08111483
000130 d5 2a 0b 3c 90 0c 12 3e 10 84 f8 3d 4a a5 fe 3b
       0.008494099 0.14262605 0.12134564 0.007771169
000140 c6 5d 29 bd 58 77 0b 3e 3c d6 f3 bc ae 49 b4 bb
       -0.041349195 0.13619745 -0.02976524 -0.0055019474
000150 36 3e f7 3d 82 b7 a1 3d 79 a1 af bd 5d 92 bb bd
       0.12072413 0.078963295 -0.0857572 -0.09158776
000160 84 b7 50 bd 8a 55 d6 3c d5 96 58 3c 17 be da bd
       -0.050956264 0.026163835 0.013219555 -0.10680788
000170 c8 de 9e 3d 59 ef 10 3d 46 2a 9e 3d 19 21 01 3d
       0.07757336 0.03538451 0.07722907 0.031525705
000180 20 40 62 bd e2 fa b0 3d f5 50 4d 3d ca f5 bc 3c
       -0.055236936 0.08641602 0.050126035 0.02306642
000190 e0 50 56 bd a6 fb c1 3d 77 78 95 bd 1e 60 cc 3d
       -0.052323222 0.09471826 -0.072983675 0.099792704
0001a0 2f 01 15 bc d9 30 40 3d 8c 5e 1c bd 44 90 11 bd
       -0.0090945205 0.046921585 -0.038176104 -0.035537973
0001b0 9a 50 9d bd 10 dd 8d 3d 7e 27 0a bd be 09 e7 bb
       -0.07681389 0.0692693 -0.03372907 -0.007050722
0001c0 38 e2 bd 3d fc 23 8b bd c2 62 e6 3c b3 98 a4 bd
       0.092716634 -0.06793973 0.028123263 -0.080369376
0001d0 c2 96 19 bd a9 b9 7f 3d 48 bb 13 3e c9 e3 46 3d
       -0.03749729 0.06243292 0.14426911 0.048557077
0001e0 d8 92 14 3e 97 27 83 3d 2b 03 86 3d e9 5e 58 3d
       0.14509141 0.064040355 0.06543573 0.05282489
0001f0 99 0b 49 3d ae 4a 94 3d 10 b5 4c bd 08 b5 b7 3d
       0.049083326 0.072408065 -0.049977362 0.08970076
000200 e8 7a ae bd 72 97 85 bd 34 04 70 bd 1c 2a 8e bd
       -0.08519536 -0.065230265 -0.05859776 -0.069416255
000210 37 ae 6c bc c2 0b a9 3d aa aa b1 3d 77 a9 18 bc
       -0.014445833 0.08254196 0.0867513 -0.009317747
000220 55 13 57 3d ec 08 a7 bc 74 39 02 bd 8c 8d 2a bd
       0.05250867 -0.020389996 -0.031793073 -0.041638896
000230 68 f1 2e bd a2 26 d8 3c 5c 01 1c 3e 46 a9 ab 3d
       -0.04271069 0.026385609 0.15234894 0.08381896
000240 18 11 e4 bc 8e 11 c6 3d c0 75 e1 3d 28 84 07 3e
       -0.027840182 0.09671317 0.11008787 0.13234007
000250 02 4c d7 3d 5a b5 df 3c 9e 60 af bd a6 1f 4d bd
       0.10512544 0.027308155 -0.0856335 -0.05007901
000260 10 64 84 bd b4 7a 70 3d 70 d5 39 3d 20 a1 4e bc
       -0.06464398 0.05871077 0.045369565 -0.012611657
000270 10 a9 7a 3c 98 5c 65 bd 28 b1 97 3c 4c 36 bd bc
       0.015299097 -0.055996507 0.018517092 -0.02309718
000280 0a ac bc bd 6a 69 c3 bd a4 2d de 3d 50 7a ea bb
       -0.09212501 -0.095415905 0.10848549 -0.007155694
000290 90 7a 14 bd c3 0c ba bd 7c 70 e7 bd 74 62 00 3d
       -0.036249697 -0.09084465 -0.113007516 0.031343892
0002a0 90 ce 9e 3d 04 4b 42 bd 94 7a b8 3d d6 b4 9d bd
       0.077542424 -0.04743482 0.09007755 -0.07700507
0002b0 80 aa 72 3d dc e2 f5 bc 20 f9 41 3c 18 18 d3 bd
       0.059244633 -0.030015402 0.011839181 -0.1030733
0002c0 c8 fe 8b bd b8 e3 0d 3d 88 9b 0a 3c 68 05 39 3d
       -0.06835705 0.034640998 0.008459933 0.04517117
0002d0 78 b5 a7 bc e6 16 4e bd 12 88 a7 3d f6 1b bb 3d
       -0.020472273 -0.050314806 0.0818025 0.091361925
0002e0 c1 85 5d bd c8 96 27 bd 78 c5 50 bd 78 60 6a 3d
       -0.054082636 -0.04091528 -0.05096957 0.057220906
0002f0 84 e7 c4 3d 08 94 da bd 5f 0f c3 bd 34 9d 15 bd
       0.096144706 -0.10672766 -0.09524416 -0.036526874
000300 80 aa 82 bb 92 f2 66 bd 80 88 df 3c 3f 28 9e bd
       -0.0039876103 -0.056383677 0.027286768 -0.0772252
000310 50 cd 91 3d de 89 de 3d 3a 81 1e bd 00 25 b7 3a
       0.071192384 0.1086614 -0.03869746 0.0013972819
000320 fe 13 de bd be 61 94 bd 88 69 41 3d c0 86 a5 3c
       -0.10843657 -0.07245205 0.047219783 0.020205855
000330 be 45 a8 bd 6c 6b 60 3d 78 5e d7 3d d8 a1 c1 bd
       -0.08216427 0.054789945 0.10516065 -0.09454697
000340 ac 0a 41 3d 20 5a db 3d c6 3f d5 bd ab 01 d4 bd
       0.047129318 0.10710549 -0.104125544 -0.10351881
000350 c4 67 45 3d c0 e1 b2 3d 08 fd 5e 3d f2 28 e8 3d
       0.04819466 0.08734465 0.05444053 0.11335935
000360 c2 f9 e2 bd 4a cf 0f bd 00 95 2a bd 7a b9 c2 bd
       -0.11082794 -0.035109796 -0.041646004 -0.09508033
000370 f0 22 86 bd 58 b6 1e bd 10 a8 fb bb d2 c7 81 3d
       -0.065496325 -0.038748115 -0.0076799467 0.06336941
000380 60 19 90 3c 40 de 6f bb 1a a7 a0 3d f8 0d 33 bc
       0.017590225 -0.0036600977 0.07844372 -0.010928623
000390 46 ef a5 3d de 9b 17 bd a8 f5 04 3d 58 22 cd 3c
       0.081022784 -0.03701388 0.03246084 0.02504079
0003a0 a4 fe e7 bc ba a8 8a bd 84 a9 8d bd 70 af f7 bc
       -0.028319664 -0.06770463 -0.06917098 -0.030235022
0003b0 38 a5 0c 3d 18 77 87 bc a0 86 dc 3c 52 2b d4 3d
       0.034337252 -0.01653628 0.026919663 0.10359825
0003c0 ec 44 3c 3d 00 aa 63 3a 00 d4 35 bb d8 12 55 bd
       0.045964167 0.0008684695 -0.002774477 -0.052019924
0003d0 4c 77 1e bd 12 34 d4 bd 8c 2a 80 bd 98 9f bb bd
       -0.03868799 -0.10361494 -0.06258115 -0.091612995
0003e0 df 44 db bd 16 f6 a5 bd c0 91 25 bd b4 71 96 bc
       -0.107064955 -0.08103578 -0.0404222 -0.018364765
0003f0 68 46 c8 3d d0 bc df bb 00 78 b7 b9 8c a4 04 3d
       0.09779054 -0.006827928 -0.00034993887 0.032383487

conv1.bias f4 [8]
000000 85 83 e0 b7 66 b2 d6 3d 04 89 31 3d 58 ab 28 bd
       -2.6764124e-05 0.104832456 0.04334356 -0.04117903
000010 fe dc 12 3c 3b 8e d3 3b c8 1b 57 be 8c f8 5e 3d
       0.008963821 0.006456164 -0.21006691 0.05443625

conv2.weight f4 [16, 8, 5, 5]
000000 c3 9c d9 3c dc 04 81 3b 41 bf 82 3d 79 34 c7 bc
       0.026564008 0.003937347 0.06384135 -0.024317013
000010 fd 7f 43 bd e6 1d 28 be ea 73 39 be a5 f4 81 be
       -0.04772948 -0.16417655 -0.18110624 -0.2538196
000020 8e ab 0f 3d 9d f9 1f be 07 d4 5b be ac ee 25 be
       0.035075717 -0.15622564 -0.21467601 -0.16204327
000030 f7 80 02 be f0 6c 27 be 63 f7 d0 3c 56 1e 09 be
       -0.12744509 -0.1635015 0.025508588 -0.13390478
000040 74 04 38 be 8b b9 28 be c6 52 66 3c 08 a8 2c bd
       -0.17970449 -0.16477029 0.014057821 -0.042152435
000050 74 ce 10 be e1 cc ff bd ba d3 12 3d 69 24 0d be
       -0.14141256 -0.124902494 0.03584645 -0.1378342
000060 47 62 57 be f1 c3 5c be e5 bd c1 bd f0 a4 2e be
       -0.21033584 -0.2155912 -0.09460048 -0.17055106
000070 a6 19 dd bd 76 f0 08 bd b5 36 7f be f7 68 85 bd
       -0.10795908 -0.033432446 -0.24923213 -0.06514161
000080 ac 84 d5 bd 64 63 8b bd e3 67 e5 bd 56 04 08 3c
       -0.10425696 -0.06806067 -0.112014554 0.008301815
000090 42 b1 3b bd f4 6f b7 bb 78 92 04 bd fb 66 c5 bd
       -0.045823343 -0.0055980626 -0.032366246 -0.096387826
0000a0 22 9a f7 bd 5e 6e ba bd d0 10 55 bd 08 75 93 bd
       -0.120899454 -0.09103082 -0.052017987 -0.07200056
0000b0 95 1b 15 be b6 af be bd 0e 89 56 bd 0a c1 b0 bd
       -0.14561303 -0.09310858 -0.0523768 -0.08630569
0000c0 88 f9 62 bd 39 31 8a bd 90 66 56 3c 9f de 8c 3d
       -0.055413753 -0.0674767 0.013085976 0.06878399
0000d0 78 bd 7a bd c0 7e 5c 3c a4 4f d7 3c 60 69 6c bc
       -0.061215848 0.013457954 0.026283093 -0.01442942
0000e0 24 18 ba 3c ca 6b 01 3d ce e0 74 3d a0 80 c5 3c
       0.02271659 0.031596936 0.059784703 0.024109185
0000f0 02 89 65 3d ea ee 68 3d 90 35 03 bd 22 45 37 3d
       0.056038864 0.05686847 -0.032033503 0.044743665
000100 ab 3b 81 3d 42 64 19 3d 2c 92 a5 3c 4f 54 29 bd
       0.06310209 0.03744913 0.020211302 -0.04134017
000110 40 fa e7 ba 3f 73 1e bd b0 1b 87 3c 42 52 54 3d
       -0.0017698482 -0.038684126 0.016492695 0.05183626
000120 c0 8a 96 3a 3d 19 82 bd a0 71 8e 3c 00 3b 9e 3a
       0.0011485443 -0.0635247 0.017388165 0.0012072027
000130 c0 58 f5 bb 7c 75 c6 3c 30 56 df 3b e2 e3 6e 3d
       -0.0074873865 0.024225943 0.0068156943 0.058322795
000140 65 16 80 bd 81 53 84 3d d0 4b 21 3c a6 dc 73 bd
       -0.062542714 0.064612396 0.009844735 -0.0595366
000150 24 db c3 bc eb 74 81 3d 8c ff 9d 3c 25 8a 88 bd
       -0.023908205 0.063211285 0.019286893 -0.06666974
000160 c0 7b 35 bc 30 79 d7 3b ce 05 6f 3d 20 7d 74 3c
       -0.011076868 0.006575726 0.058355145 0.01492241
000170 90 09 bc 3b ac c6 0b bd 8b 51 86 3d b0 92 c7 bb
       0.0057384446 -0.034125015 0.06558522 -0.0060904846
000180 fa 28 3c 3d d2 2f 40 bd fa d2 88 bc 89 34 73 bd
       0.045937516 -0.046920605 -0.016702164 -0.059376273
000190 98 bd 77 be e3 58 19 be d4 f1 5a be 9d 00 0b bd
       -0.24193418 -0.14975314 -0.21381313 -0.03393613
0001a0 02 01 3f bd 0f 89 11 be 07 34 3b be 73 2b 19 be
       -0.04663182 -0.1421244 -0.18281566 -0.14957981
0001b0 be c3 ad bc 5a ac 9a bd 3f 55 38 be 59 32 14 bd
       -0.021211501 -0.07552405 -0.18001269 -0.036180828
0001c0 01 27 42 be e0 27 dd bd d8 71 36 be a2 8c 1c be
       -0.18960191 -0.10798621 -0.17816865 -0.15288022
0001d0 0d 69 15 be 3b 3b 05 be 3a 04 6b be 19 7e 14 be
       -0.14590855 -0.13010876 -0.22950831 -0.14501227
0001e0 ac d5 16 be db 7e 17 be 47 01 1a be d2 4b e7 bd
       -0.14729947 -0.14794485 -0.1503955 -0.112937585
0001f0 17 b4 3c be 0e 12 04 be 6a fb 12 be 20 10 24 bd
       -0.18428074 -0.12897512 -0.1435372 -0.04005444
000200 c5 67 b3 bd c2 b2 3a bd 1e f1 1d be 0b 17 02 bd
       -0.08760027 -0.045580633 -0.1542401 -0.031760257
000210 f0 4f 2b be b0 3f 16 bd 7f 1c ba 3d 78 f1 94 bd
       -0.16729712 -0.03668183 0.090874664 -0.07272619
000220 cf 74 24 bd 52 e2 35 bd 26 23 2d 3d 77 96 ae bd
       -0.04015046 -0.04440529 0.04226985 -0.08524793
000230 78 65 88 bd 8a 03 1b be bf 7e 65 bd 43 79 f4 bc
       -0.06659979 -0.15138069 -0.056029078 -0.029842978
000240 c0 6e bb bd 74 30 18 be e5 bb 21 be ee 1a db bd
       -0.09151983 -0.14862233 -0.15794332 -0.10698496
000250 da d0 1a be 86 b3 c2 bd 18 8a 0c be f3 f3 23 bd
       -0.15118733 -0.09506898 -0.13724554 -0.04002757
000260 fa f3 0a be 9a 29 23 be 9e 5e 2f bd 8a 97 c6 bd
       -0.13569632 -0.15933838 -0.042814843 -0.096968725
000270 28 65 f4 bd 2e 84 83 bd 25 20 07 bd 60 85 fb bc
       -0.119333565 -0.06421696 -0.03298964 -0.030703247
000280 81 39 50 bd 3b f0 cd bd f8 85 cd bd 0b cb 13 be
       -0.05083609 -0.10055586 -0.10035318 -0.14432923
000290 fd 71 85 bd ca c6 ed bc 37 b4 09 be 42 e5 12 be
       -0.06515882 -0.029025454 -0.13447653 -0.14345267
0002a0 43 6b 74 bd b1 ba dc bd 4b e7 37 bd ec 04 60 bd
       -0.059672605 -0.10777796 -0.044898313 -0.054692194
0002b0 71 80 04 bd 3a f4 c1 bd a1 aa 2b be fa 35 67 3d
       -0.032349054 -0.09470411 -0.16764309 0.05644796
0002c0 93 15 8f 3d 80 c9 59 bd 51 e7 87 3d 00 42 65 3c
       0.06986537 -0.05317068 0.06635917 0.013992786
0002d0 58 e5 9e bc 36 26 4f 3d d2 b3 1b 3d 24 5a db 3c
       -0.019396469 0.05057355 0.038013287 0.02677638
0002e0 40 da 20 3b 7c e7 56 bc 02 eb 09 3d 38 16 70 bc
       0.002454415 -0.013116714 0.033671387 -0.014653735
0002f0 c0 f3 1c 3c 88 ae 6d bd b0 f3 07 bc 5b d0 84 bd
       0.009579599 -0.058027774 -0.008297846 -0.06485053
000300 52 0b fa bc 4c 9f a2 3c 84 26 fd bc 80 29 03 3a
       -0.030522976 0.01985135 -0.030902155 0.00050034374
000310 a0 74 02 3c 0c 19 18 bc ca a8 77 3d ae cc 64 3d
       0.007962376 -0.009283315 0.060463704 0.05585926
000320 81 53 cc bc e2 3f 2e bd e7 53 b6 3c 47 fd 9d bd
       -0.024942162 -0.042541392 0.022256805 -0.077143244
000330 5b 9a ea 3c cb 71 b1 3c 4b f6 e9 3c a9 f8 30 bd
       0.028638056 0.021660706 0.028559824 -0.04320589
000340 79 68 63 3b 97 7e 30 bd 8a 2a 44 3d ea da 37 3d
       0.0034699722 -0.043089475 0.04789213 0.044886507
000350 cd 5f 94 bc c7 cc bf bd 72 b6 1f bc e5 9c b8 bc
       -0.018112088 -0.0936523 -0.009748088 -0.02253575
000360 33 3d 77 bd 75 d6 e6 bc f2 d4 1c bd 6f 4c 6e bd
       -0.0603611 -0.028178433 -0.038289018 -0.05817836
000370 51 2e 86 bd be 2d 04 3d ae ab 40 3c ad 7e ad bc
       -0.06551803 0.032270186 0.011759682 -0.021178568
000380 0a 35 16 bc ba 25 a7 bd 57 bb fe bd c8 f5 13 bd
       -0.009167919 -0.08161493 -0.12438076 -0.036123067
000390 58 03 5a bd d1 fe 17 be 77 bd 89 bd 98 cf 20 bd
       -0.053225845 -0.14843298 -0.06725591 -0.039260477
0003a0 a4 96 14 be dc b3 28 bd e1 6a b8 bc 08 40 04 bd
       -0.1451059 -0.041187152 -0.022511901 -0.032287627
0003b0 1b b0 be bd 62 ec 3e bd 30 c2 9b bd 32 f9 22 be
       -0.09310933 -0.04661215 -0.07605398 -0.15915373
0003c0 34 c7 a0 bd 94 6c c4 bd e9 45 17 be ae 79 2a be
       -0.07850495 -0.09591022 -0.14772762 -0.1664798
0003d0 f8 60 11 bd f8 92 a2 bd 49 23 0c be 1d 84 a9 bd
       -0.035492867 -0.07938188 -0.13685335 -0.08277152
0003e0 2c 3d 27 bd 3e a5 b1 bd 80 71 e1 ba 28 5d 15 bc
       -0.040829822 -0.086740956 -0.0017199963 -0.009116448
0003f0 52 62 1d 3d 00 2b dc ba 8a 98 59 bd e2 eb 84 bd
       0.038423844 -0.0016797483 -0.05312399 -0.064903036

conv2.bias f4 [16]
000000 f9 33 4f be 31 02 87 bc db 3d f9 3c 9e 9b ef bc
       -0.2023467 -0.016480537 0.030425003 -0.029249009
000010 86 bc b8 bd 65 01 84 be 70 ba 88 bc 70 cc 10 be
       -0.09020333 -0.25782314 -0.016690463 -0.14140487
000020 38 40 0d 3d 50 cb 17 be 2e 47 07 3d 51 cd dc bd
       0.034485072 -0.14823651 0.033026867 -0.107813485
000030 d9 9a e4 bd 5c ab 83 3b 4e 63 28 3c f7 de 0c be
       -0.11162347 0.0040182304 0.010277582 -0.1375693

conv3.weight f4 [16, 16, 5, 5]
000000 fe 2f 12 3d 6a a6 34 bc 9d 98 85 bc 79 81 56 3b
       0.0356903 -0.011026004 -0.016308123 0.003273098
000010 76 b1 6b 3c 86 11 65 3c bb 1f d7 3c 28 dd 30 bd
       0.014385572 0.013981229 0.026260247 -0.04317966
000020 31 99 99 bc 72 79 34 3d b8 14 47 bd e4 10 18 3a
       -0.018749805 0.04406113 -0.048603743 0.0005800857
000030 eb cd a2 3c 2e 4c 46 3d ea 4c 3b 3d 5c 0b 93 3b
       0.01987358 0.048412494 0.045727648 0.004487438
000040 ac be d7 3b 7a 91 06 3d 8a 27 23 3d 6b a9 fc 3c
       0.006584009 0.03285358 0.03983263 0.030842504
000050 78 09 27 bd 46 18 2c bd 2e 84 32 3c 0e e5 6e 3c
       -0.040780514 -0.042015336 0.010895772 0.014580978
000060 c2 f2 07 3d 75 f4 4d bd fe 0e 72 bd a2 54 0f bd
       0.033190496 -0.05028196 -0.05909633 -0.03499282
000070 ca 77 e9 bd 6f 1d 0a be 94 47 ab bb 1c bb 0a be
       -0.11399801 -0.1348779 -0.0052270386 -0.13547939
000080 b1 16 5b bd 78 e0 d3 bd a3 df 82 bd 94 8f be bd
       -0.053488437 -0.103455484 -0.063903116 -0.09304729
000090 cd 8f f6 bd 8e 70 70 bd 25 cb 9b bd 2b 83 e5 bd
       -0.120391466 -0.05870109 -0.07607106 -0.11206659
0000a0 94 b0 56 bd 8f ba ce bd 78 85 50 be a8 55 04 be
       -0.05241449 -0.10094177 -0.20363414 -0.129233
0000b0 24 70 a8 bd 94 d5 f9 bd c1 e9 c9 bd b8 9d e1 bd
       -0.08224514 -0.1219894 -0.09859038 -0.110164106
0000c0 0e 5f 9e bd 83 c2 02 be 5a 0d 25 3d 7a 3a 0d 3d
       -0.07732974 -0.12769513 0.040295936 0.034479596
0000d0 07 0d 1b be db 1e f8 3c c9 34 40 bd c2 14 1d 3d
       -0.15141688 0.03028815 -0.04692534 0.038349874
0000e0 ec 8e f4 3b 2d bc 44 bd ca ec 03 bd 79 b0 ba bc
       0.0074633267 -0.04803102 -0.03220824 -0.022789227
0000f0 4e e4 14 3d 15 39 d6 bc f6 91 31 3d a1 5f fd bc
       0.03635054 -0.026150266 0.04335209 -0.030929388
000100 77 ec 1d be e5 72 1e bd de 2f 19 be 16 9c 1e 3c
       -0.15422235 -0.03868379 -0.14959666 0.0096807685
000110 5e 99 37 3d c3 b5 90 3c 32 a0 00 3d 56 bd 30 3d
       0.044823997 0.017664796 0.031402774 0.043149315
000120 c3 ba 3e bd af 49 2a bd db 63 bb 3c b1 2c 98 3d
       -0.04656483 -0.041574176 0.022874763 0.07430399
000130 0f 14 ab 3d 5f e0 8b 3d 1d b5 e4 3d 84 12 c6 3d
       0.08353435 0.06829905 0.11167357 0.096715
000140 23 c6 77 3d 10 17 17 3e b0 69 0e 3e 5a 11 4e 3d
       0.060491692 0.14754891 0.13907504 0.050309516
000150 16 2b b1 3d 3a af 54 3d 31 16 e5 3d 5a 92 9e 3d
       0.08650796 0.05192492 0.11185873 0.07742758
000160 bf 1b 0f 3e 9b 5c ed 3d a1 c2 b0 3d fd ef 10 3e
       0.13975428 0.11589929 0.086308725 0.14154048
000170 a8 a1 90 3d 5d 0e f0 3d b8 3a f7 3d 6c 69 a4 3d
       0.070620835 0.117214896 0.120717466 0.0802792
000180 1b 82 f6 3d e0 23 c2 3d 56 8b d8 3d d0 a4 ad 3d
       0.120365344 0.09479499 0.10573451 0.08478701
000190 b1 35 e1 3d 24 e8 da 3d bb a5 71 3d 2e de 36 3d
       0.10996569 0.106888086 0.058995944 0.04464548
0001a0 f4 84 e3 3d 78 3f 74 3d d7 52 05 3e 74 11 95 3d
       0.11109343 0.05963084 0.13019882 0.072787195
0001b0 72 15 d6 3d c1 68 35 3d c0 b3 91 3d 51 fe af 3d
       0.10453309 0.044289354 0.07114363 0.08593429
0001c0 31 ab f6 3d 4d 17 b9 3d 95 de 2c 3d 22 ca 50 3d
       0.12044371 0.090376474 0.04220446 0.05097402
0001d0 f9 b8 7a 3d f5 3e bc 3d 9e 0f e8 3d 93 cd e6 3d
       0.06121156 0.091916956 0.11331104 0.11269679
0001e0 7b 6a 06 3e 17 f0 df 3d d2 47 b1 3d 70 55 6b 3d
       0.13126557 0.109344654 0.08656277 0.057454526
0001f0 55 d8 bd 3d 27 9b 06 be 4c 66 94 bd 69 8c ed bd
       0.09269778 -0.13145123 -0.07246074 -0.11599047
000200 ff 9f 78 bd fb 19 04 be 21 90 dc bd e6 2a f3 bd
       -0.06069946 -0.12900536 -0.10769678 -0.118734166
000210 79 7c 0d be ca 66 16 be 6a 0a 15 be 07 5e 96 bd
       -0.13817014 -0.14687648 -0.14554754 -0.07342153
000220 1b a7 9c bd 73 29 7b bd ed 74 e3 bd 52 35 e2 bd
       -0.0764906 -0.061318826 -0.11106286 -0.11045326
000230 5a 0e 15 be e6 32 0f be e3 81 88 bd 0d 87 76 bd
       -0.14556256 -0.1398426 -0.06665399 -0.06018739
000240 62 f5 d1 bd dc 4d 84 bd fe 40 87 bd f2 48 b8 bd
       -0.10251881 -0.06460163 -0.06604193 -0.08998288
000250 0a 38 bb bd 47 22 53 bd 40 d8 b6 bc 86 60 f0 3c
       -0.09141548 -0.05154636 -0.022319913 0.029342901
000260 4c 42 81 bc 73 2e 3f 3d ad a0 07 3d ea be cf 3c
       -0.015778683 0.046675157 0.033112217 0.02535959
000270 1a 9a f7 3c f0 27 81 bb 47 41 24 3d 08 a6 3f 3c
       0.030224849 -0.0039415285 0.040101316 0.0116973
000280 50 b3 ed bb 89 2d 2d 3d d4 e0 2f bc f3 51 41 bd
       -0.0072540417 0.042279754 -0.010734756 -0.047197293
000290 56 e2 28 bd ae d7 b7 3c 11 d3 01 3d 33 55 34 3d
       -0.041231476 0.022441711 0.03169543 0.044026565
0002a0 80 97 99 bc 12 7e dd 3c 74 6a 25 3c 40 37 10 3a
       -0.018748999 0.027037654 0.010096181 0.0005501397
0002b0 21 74 34 3d e0 5d 1e bb 17 c3 40 3d 44 88 3e bd
       0.04405606 -0.002416484 0.047061052 -0.04651667
0002c0 8c 80 30 bd f6 53 19 bd 3e 58 29 3d bc 88 e1 3b
       -0.04309134 -0.037433587 0.04134392 0.006882755
0002d0 a4 3a f4 bb a7 bb c2 3c 75 50 ac bc 07 76 b5 3c
       -0.0074532796 0.02377112 -0.021034459 0.022151006
0002e0 99 15 5f 3b 66 31 1c bd 69 1e b5 bc 4a 5e 5c bc
       0.0034039973 -0.038133048 -0.022109227 -0.013450215
0002f0 27 56 62 bb ad 59 d5 bc 82 39 46 3d 24 99 a9 bb
       -0.0034536214 -0.026043737 0.048394687 -0.0051757265
000300 79 01 eb bc f1 57 b5 bc 3e 80 36 3d 87 13 3e bd
       -0.028687226 -0.02213666 0.044555895 -0.04640534
000310 49 1b 2f bd b4 2f b2 bb fb 8c 90 3c 96 05 48 3c
       -0.04275063 -0.0054378156 0.01764535 0.012208363
000320 5d 23 17 bd 07 34 49 3d de 57 28 bd 66 88 a5 3c
       -0.03689896 0.049121883 -0.04109942 0.020206641
000330 2a cd e7 bc 3c 9c 07 bd 6a 64 01 bd 22 10 82 3c
       -0.028296072 -0.03310798 -0.031589903 0.015876833
000340 12 a2 b9 3c af 4b 4a bd 8a ac fe bc e3 60 de bc
       0.022660289 -0.049388584 -0.031088132 -0.027145809
000350 9d bc 07 3d 0f 69 11 3d 32 e5 29 bd 17 08 9a bc
       0.03313886 0.035500582 -0.041478343 -0.018802686
000360 00 98 0f b8 dd 9a dd bc c8 a5 31 bd 2e 24 d5 3c
       -3.4235418e-05 -0.027051384 -0.043370992 0.026018228
000370 8a e1 e0 bc db 29 1c 3d 4d 70 be bc 40 4a 82 3a
       -0.027451295 0.038125854 -0.023246909 0.0009940341
000380 09 65 20 3d b8 69 e4 bd a6 82 b3 bd af 64 9c bd
       0.039158855 -0.11152977 -0.087651536 -0.07636391
000390 22 31 d4 bd 02 a1 ff bd f1 bd 02 be 0f 13 8c bd
       -0.10360934 -0.12481882 -0.1276777 -0.06839573
0003a0 97 f7 0d be 68 8b f8 bd a5 89 6c bd cc 39 0b be
       -0.1386398 -0.12135965 -0.057748456 -0.13596267
0003b0 0a 60 0b be bf d6 6a bd 00 62 c3 bd 49 0a 55 bd
       -0.13610855 -0.057333704 -0.095401764 -0.05201176
0003c0 77 b4 54 bd fd 02 5e bd 2d 07 94 bd 57 ae a9 bd
       -0.051929917 -0.05420207 -0.07227931 -0.08285206
0003d0 be f8 cd bd 34 95 0f be 33 23 a9 bd ed e6 4e bd
       -0.100572094 -0.1402176 -0.08258667 -0.050513197
0003e0 52 a0 ea bd 72 0d c5 bd da a4 3e 3d b9 90 2a 3b
       -0.1145636 -0.09621705 0.046543933 0.0026026203
0003f0 dc 21 a3 3b 0e 0d 52 bd d3 9c 98 bd 35 e0 98 bc
       0.0049784016 -0.05128198 -0.07451787 -0.018661598

conv3.bias f4 [16]
000000 b3 f5 1e bd c6 99 0f be 6b f0 b3 bd 04 88 13 be
       -0.038808536 -0.14023504 -0.087860905 -0.14407355
000010 71 29 04 be 30 ce d7 bb 33 51 b6 bc ef 44 17 bd
       -0.12906434 -0.0065858588 -0.022255516 -0.036930975
000020 64 1e a4 bd 75 6b 07 bd b3 78 13 be e5 6b ce bd
       -0.08013609 -0.033061463 -0.14401512 -0.10079173
000030 ef 27 69 be 83 51 ef bd 20 6d 23 bd 9e 30 10 bd
       -0.2276914 -0.11685469 -0.03989899 -0.035202615

l1.weight f4 [256, 400]
000000 2d 97 be bc ce 62 99 ba 0e 2d 03 3d 83 fa fe 3c
       -0.023265446 -0.001170242 0.03202539 0.031125313
000010 5e e6 44 3c d7 48 91 3c 76 89 0d 3c bc 81 0b bd
       0.012017814 0.017734928 0.00863873 -0.03405927
000020 c7 86 81 3c af fb 22 bd 0d 6d 99 bc 32 bb 2f bc
       0.015811337 -0.039790805 -0.018728757 -0.010725783
000030 12 6a 2a 3d d6 e5 36 3d 56 93 7a 3c 22 c3 29 3d
       0.041605063 0.044652782 0.015293917 0.04144586
000040 56 33 6a 3c f3 f1 eb 3c 6d 71 b3 bc ce f5 50 3c
       0.014294466 0.028801894 -0.021904672 0.012753917
000050 f6 da 3b 3c 1c c7 3a ba e5 c1 e6 bc 73 24 fd 3c
       0.011465779 -0.00071250065 -0.028168628 0.03090117
000060 8b 41 f0 3c 59 57 32 3d 44 32 68 3c e6 b2 93 bc
       0.029328128 0.043540332 0.0141721405 -0.018029641
000070 69 79 3f 3d 7a ef e2 bc 6c 3e 88 bc ea 44 8e bc
       0.046746645 -0.027702082 -0.016631328 -0.017366845
000080 a6 99 b5 3c a0 78 b8 bc bd 46 ca bc da 4f 2a bd
       0.022167992 -0.022518456 -0.024691934 -0.04158006
000090 03 95 1d 3d 8d 06 2e 3d 0b 2e 31 bd fc 2a 64 3c
       0.038472187 0.042486716 -0.0432568 0.013926264
0000a0 42 74 c9 3c d9 78 1d 3d 4e 67 19 bd e6 f4 04 bd
       0.024591569 0.038445327 -0.037452035 -0.032460116
0000b0 e2 de b2 3c 94 bc 20 bc 46 f2 8d bc 33 2a 2e bd
       0.021834794 -0.0098105855 -0.017327439 -0.042520713
0000c0 64 f4 6b 3c 00 74 99 ba db 64 43 bd 28 df 37 3d
       0.014401529 -0.0011707544 -0.047703605 0.044890553
0000d0 d4 cf 24 3d ba 73 1c 3d d2 08 83 3c 4a cc 4a 3d
       0.040237263 0.038196303 0.015995417 0.04951123
0000e0 71 3e 1f 3d f1 b5 03 3c 81 d2 20 3d 0f d1 8f 3d
       0.03887791 0.008038984 0.039263252 0.07022297
0000f0 56 4d cf 3d 10 59 a0 3d 9e 67 14 3d b1 52 fb bc
       0.101221725 0.07829487 0.03623163 -0.030679079
000100 2c 1d 02 bd 89 76 7e 3d a6 f5 31 3d e1 5e c6 3d
       -0.0317661 0.062124763 0.04344716 0.096860655
000110 e1 db 21 bd 4d 46 42 3d 00 a8 71 3a d3 1b 7e 3d
       -0.039516333 0.047430325 0.00092184544 0.062038254
000120 45 0b 03 3e 63 f3 44 3d 1f 0c 3e 3d 88 df 43 bd
       0.12797268 0.048083674 0.04639828 -0.047820598
000130 e3 86 3a bd b4 cf 46 3c f6 15 c0 3c 47 c6 01 3d
       -0.045538794 0.012134481 0.023447972 0.031683233
000140 10 9a 8f bb d1 96 04 3d f0 5c a6 bb 18 a1 01 3c
       -0.0043823794 0.032370392 -0.005076997 0.007911943
000150 7f 9e 33 3d aa b2 bb bc ad b4 f4 bc 60 9d 16 3b
       0.043852326 -0.022912342 -0.02987131 0.0022981986
000160 43 2e a0 bc b0 d1 b5 bc da 15 a9 3c 13 2d 19 3d
       -0.01955331 -0.022194713 0.020640302 0.0373965
000170 07 c7 2e bd 8e 7c da 3c b0 01 67 3b 4a 8e aa 3c
       -0.042670276 0.02667072 0.0035248809 0.020819802
000180 82 0c 96 3c 42 cb de 3c 71 25 45 3d 40 58 92 3a
       0.018316511 0.02719653 0.04813141 0.0011165217
000190 f4 22 0a 3c 61 c4 4a 3d e3 cf 41 bd 34 40 61 3c
       0.008431185 0.049503688 -0.047317397 0.013748217
0001a0 50 60 be bc bd 03 22 bd 19 47 4b 3d 96 e5 eb 3c
       -0.023239285 -0.039554346 0.04962835 0.028795999
0001b0 d0 61 dc bc 18 8c 1c bc 88 2f 1e bd 3b c5 2c 3d
       -0.02690211 -0.009554885 -0.038619548 0.04218028
0001c0 c4 be 5a 3c 74 00 5f bc 00 76 c7 3b 23 a1 dd bc
       0.013351146 -0.013610948 0.0060870647 -0.027054375
0001d0 22 b5 3f bd da ce a5 bc e7 3a 08 3d c5 88 2b bd
       -0.0468036 -0.020240236 0.0332593 -0.04187848
0001e0 34 12 49 bc de 43 85 3c ed 90 af bc b1 5c 40 3d
       -0.012272406 0.016267713 -0.02143141 0.046963397
0001f0 6a f6 d3 3c c0 7b cc bd 06 56 0a be 5d 58 09 be
       0.025874335 -0.09984541 -0.13509378 -0.13412614
000200 44 e3 5d bd 28 4d f7 bd 4c 08 ee bd f5 fc ef bd
       -0.054171816 -0.12075263 -0.11622676 -0.117181696
000210 a8 ba e6 bd bc a0 c4 bd 60 eb 92 bd 32 76 17 be
       -0.112660706 -0.0960097 -0.071738005 -0.14791182
000220 81 5c 9a bd 5e af 0f be 08 40 b3 bd 5f 24 11 be
       -0.07537175 -0.14031741 -0.08752447 -0.1417403
000230 6d 3e fb bd 2c 4d 95 bd d8 95 c2 bd fa 25 f1 bd
       -0.12267766 -0.0729011 -0.09501237 -0.117748216
000240 62 41 18 be 03 67 94 bd d2 41 48 bd 21 2d cf bd
       -0.14868692 -0.072462104 -0.048890896 -0.101160295
000250 44 7a c6 bd fa 9a 6d bd 53 39 47 3d e8 66 ca 3b
       -0.09691289 -0.058009125 0.048638653 0.006176818
000260 63 f5 4b 3d 52 b3 a3 3c 42 1b 27 bd 80 89 d3 bb
       0.049794566 0.019982968 -0.04079748 -0.0064556003
000270 4c 87 38 bc 68 b3 cf bb 30 6e 29 3b 53 cb 48 3d
       -0.011262726 -0.0063385256 0.002585303 0.04902203
000280 c2 15 ca 3c 54 a2 48 bc 80 5a 7a 3b aa 06 94 3c
       0.024668578 -0.012245733 0.0038200915 0.018069584
000290 e3 f8 d7 bc 54 3d 65 3c f8 76 0e 3c 63 84 2d bd
       -0.026363796 0.013991673 0.008695357 -0.042362582
0002a0 0a bc 19 bd e1 07 37 3d 2c 8c 42 bc 00 b9 a1 39
       -0.037532844 0.04468525 -0.01187424 0.0003084615
0002b0 63 11 49 bd da c4 b3 3c 53 65 03 3d ce 3b 0c 3c
       -0.049088847 0.021944452 0.032079052 0.00855918
0002c0 f1 b1 36 bd 94 c8 a0 bb 2b 01 fb 3c 1f 49 38 bd
       -0.044603292 -0.0049067233 0.030640205 -0.04499161
0002d0 21 78 e8 bc b6 8d 41 3c 79 fd 23 3b bc ef 81 3b
       -0.028377594 0.011813572 0.0025022908 0.003965346
0002e0 a0 18 43 bd 11 f3 84 bc 3a ea 12 bc f2 c0 ad 3a
       -0.047630906 -0.016229184 -0.008966977 0.0013256355
0002f0 bf 3f 9a 3c fe ec 2a 3c 8d 70 e6 bc ba e4 2c 3d
       0.018829225 0.01043248 -0.02812984 0.04221032
000300 e7 51 38 bb d2 ee 29 3d db 6f ba 3c bc a5 4b bd
       -0.002812499 0.041487522 0.022758415 -0.049718603
000310 0e 07 4f 3c 86 47 06 3d 51 7c 36 bd 82 0f 6e bc
       0.012635959 0.032783054 -0.04455215 -0.014530065
000320 23 87 f4 3d 99 79 ee 3d 7f 06 52 3d a4 db 08 3e
       0.11939838 0.11644287 0.051275726 0.13365036
000330 eb a4 0b 3e 9d 22 59 3d df aa b5 3d f5 64 ae 3d
       0.1363713 0.053011525 0.08870482 0.0851535
000340 17 bc cb 3d 24 be 10 3e 50 af ba 3d d3 4a 0e 3e
       0.09947985 0.14135033 0.091154695 0.1389573
000350 24 1b 16 3e c4 39 0a 3e 6a 45 e8 3d b3 68 82 3d
       0.14658791 0.13498598 0.11341365 0.06367626
000360 9e 6e 54 3d 8b b0 06 3e 0b b3 0d 3e 18 65 ab 3d
       0.051863305 0.13153283 0.1383783 0.083688915
000370 d7 ad 6d 3d c5 5a 88 3d 63 0b bd 3d 91 0c 81 3d
       0.058027115 0.06657938 0.092306875 0.06301225
000380 70 4f a9 3d c7 1b ca bd de e4 d1 bd c1 fc 81 bd
       0.082671046 -0.09868579 -0.10248731 -0.06347037
000390 af 99 7c bd a7 04 15 be fe 3e af bd cf 0b 70 bd
       -0.06167 -0.14552556 -0.08556937 -0.05860501
0003a0 9b 69 18 be 1a c4 87 bd 3f 70 12 be d8 14 8a bd
       -0.14884035 -0.066292 -0.14300631 -0.06742257
0003b0 26 b3 ad bd c5 86 ae bd 1a 47 b4 bd f5 58 c4 bd
       -0.084814355 -0.08521799 -0.08802624 -0.0958728
0003c0 fe fc f0 bd b0 91 cd bd 1b de 91 bd cc e0 b6 bd
       -0.117670044 -0.10037553 -0.071224414 -0.08929595
0003d0 d4 ed 87 bd db 39 d3 3c 4a a0 18 be 13 b7 97 bd
       -0.06637159 0.025784424 -0.14904895 -0.074079655
0003e0 b3 0b 93 bd 0b 61 19 be e2 29 9c bd 6c 73 e4 bd
       -0.07179966 -0.14978425 -0.07625176 -0.111548275
0003f0 dc 3a 90 bc a2 8d 97 3c a8 db aa bb ec 46 51 3c
       -0.017606191 0.018500153 -0.0052141733 0.012773257

l1.bias f4 [256]
000000 d7 7d ab bb c8 f4 34 b9 ff 09 ce bc 58 64 f0 bb
       -0.005233507 -0.00017257326 -0.02515125 -0.0073361807
000010 f7 e3 ec bc f5 0e ba b9 9c 93 09 be 66 de 94 b7
       -0.028917296 -0.00035487828 -0.13435215 -1.7746537e-05
000020 5c 10 86 b8 6d 62 11 bd 87 5b 86 bd 1b af 12 ba
       -6.392665e-05 -0.035494257 -0.06560426 -0.0005595551
000030 c0 62 0b be 0a a5 2b bd c4 8c 26 bc 48 41 c7 bc
       -0.13611889 -0.04190544 -0.010165397 -0.02432312
000040 a0 57 e0 bc ab ff 05 bd 83 86 b6 bd 4a b9 3b bd
       -0.027385533 -0.032714527 -0.08912375 -0.045831002
000050 7a 91 59 bd 79 41 64 bc d1 c6 11 be 73 2b ca bd
       -0.053117253 -0.0139316255 -0.14235999 -0.098715685
000060 20 e0 1b ba 94 b1 50 bc ab 1b fb ba 28 7b f1 bd
       -0.0005946178 -0.01273765 -0.0019158026 -0.11791068
000070 e0 93 10 bd 6d 9f b0 bc ef 93 c7 ba 38 12 ea bd
       -0.035297275 -0.021560395 -0.0015226583 -0.11429256
000080 82 56 0b be 85 09 b5 bc 66 aa 63 bd ac 58 76 b9
       -0.13607219 -0.022099266 -0.055582426 -0.00023493421
000090 e9 6b c9 bc d7 34 01 be 62 50 15 be 57 f5 96 bd
       -0.024587588 -0.12617813 -0.14581445 -0.073710136
0000a0 c1 37 51 ba bb 2e d6 ba c4 b9 91 b9 cd 27 95 bb
       -0.0007981025 -0.0016340831 -0.0002779496 -0.0045518638
0000b0 4a f3 9d bd 79 98 bc bb 5d 6b db bd 15 c7 75 bc
       -0.07712419 -0.005755481 -0.10713837 -0.015001078
0000c0 54 70 ce b9 a8 41 28 bd c9 2a 0c b8 0c b5 93 bd
       -0.00039375073 -0.04107824 -3.3418448e-05 -0.07212266
0000d0 55 b4 02 bd e3 79 d5 bc 60 2d d9 bd 6a 1b b6 bc
       -0.03191026 -0.026059097 -0.10604358 -0.022229869
0000e0 d6 cc 9e bd b8 15 3b ba 44 87 a9 bc c8 95 db bd
       -0.07753913 -0.000713672 -0.020694382 -0.10721928
0000f0 b6 f4 84 bd 12 a0 1c bb e8 c2 85 bd 3e 0c bd b9
       -0.064919874 -0.002389912 -0.06531316 -0.0003605801
000100 fa e8 be bc f2 a1 64 bd 74 55 e7 bb 23 6b 77 bd
       -0.023304451 -0.055818506 -0.0070597474 -0.060404908
000110 1d cd d1 bd e4 0c 52 bd 77 b5 35 ba 9c a0 11 be
       -0.102442004 -0.051281825 -0.00069316424 -0.14221424
000120 9f 4c 95 bd f7 e5 82 bd 95 42 18 be e6 1c e3 bd
       -0.07290005 -0.063915186 -0.14869149 -0.11089496
000130 18 2b a8 bd 3a 73 59 ba a3 72 f4 bc 2f 15 87 bd
       -0.082113445 -0.0008295063 -0.02983982 -0.06595837
000140 94 5c 37 bb ae 52 09 be 45 8b 05 bd 2b 19 1a bd
       -0.0027978765 -0.13410446 -0.03260352 -0.03762166
000150 59 3d f8 bd 91 25 68 bc 74 c3 36 bc c4 1a 96 ba
       -0.12121076 -0.014169113 -0.011154998 -0.0011452069
000160 1a 44 92 bd 34 69 f3 bd 50 20 a2 bc 4a 68 e9 bc
       -0.071418956 -0.118853 -0.019790798 -0.028492112
000170 5f 22 db bc a0 14 0b be 40 79 d0 bd 2b 50 59 ba
       -0.026749788 -0.13582087 -0.101793766 -0.0008289839
000180 7b c3 50 bd 29 22 98 bd e1 18 1a bc 48 a2 3a bc
       -0.050967675 -0.074283905 -0.009405346 -0.01139123
000190 98 50 07 be e9 ac f2 bd d5 15 0c be 79 8c 28 bd
       -0.13214338 -0.11849386 -0.13680203 -0.04114959
0001a0 1a 42 2d bd d1 ae b5 bd b2 94 22 bc e8 ff b8 bb
       -0.042299367 -0.08871234 -0.009923147 -0.005645741
0001b0 2c 5d 0d bc c1 db 03 be d3 ad 78 b9 a8 ba 65 bb
       -0.008628171 -0.12876798 -0.00023715878 -0.0035053883
0001c0 a3 de 03 be 13 a4 74 bd 41 f6 04 be 41 de b6 b9
       -0.12877898 -0.059726786 -0.12984563 -0.00034879337
0001d0 ac 63 5d bc 8c 13 63 bd 6b a2 8a bd a2 7e 07 bb
       -0.013512533 -0.055438563 -0.0676926 -0.0020674844
0001e0 9e e0 14 be 36 ce 2a bb ba da e2 bc d9 2d ab bd
       -0.1453881 -0.0026062853 -0.027692188 -0.08358354
0001f0 91 08 06 be ba f6 2a bd 66 e6 44 bd 24 12 18 be
       -0.13089205 -0.041739203 -0.048071288 -0.1485067
000200 1b 3a 32 ba 4b 0e 8a bd 0c 6e 07 be c4 82 ac bd
       -0.00067988195 -0.067410074 -0.13225573 -0.08423379
000210 4d 04 64 bc dd 8d 1b bb 65 00 f6 b6 8f a4 13 bc
       -0.013917041 -0.002373568 -7.3314172e-06 -0.009011402
000220 54 b4 12 be 11 84 fe bc 47 5f 15 bd 4d d4 ad b9
       -0.14326602 -0.031068834 -0.036467817 -0.00033155308
000230 c5 8c 1a b9 10 74 82 bd b9 11 f4 bd 82 2c 2b bd
       -0.00014739025 -0.063697934 -0.11917443 -0.041790493
000240 0b f4 eb bc cf d9 71 bd 4e 0e b3 b9 37 39 0d be
       -0.028802892 -0.05904561 -0.00034152198 -0.13791357
000250 c2 0b d4 bd 4d 0b f0 bd 63 35 11 be 17 5e 16 be
       -0.10353805 -0.117209055 -0.14180522 -0.1468433
000260 e5 bc 90 ba d9 9e 1d bc fc d0 39 bd 05 ac b4 bc
       -0.0011042623 -0.009620392 -0.04536532 -0.022054682
000270 87 0d 18 bc 80 92 5a ba 91 07 75 ba 2e 54 0d be
       -0.009280569 -0.000833787 -0.0009347136 -0.13801643
000280 2c 9d 7a ba b9 2b 42 bd 2c 2a 1f bc c8 3f 4a bc
       -0.00095601636 -0.04740498 -0.009714644 -0.012344308
000290 fd b0 b3 b9 66 f8 d5 ba e0 c4 8b b8 03 8b 4b bd
       -0.00034273407 -0.0016324639 -6.664707e-05 -0.04969312
0002a0 94 48 88 bc 42 6b 0f bd c3 8a 28 bc 9d 0f 6b bd
       -0.01663617 -0.0350144 -0.01028699 -0.057387937
0002b0 c1 c0 5a bd 9e 69 1c b9 89 7a bd bd a2 78 aa bc
       -0.05340648 -0.00014916665 -0.09251887 -0.020809475
0002c0 77 75 bb bd 72 1e dc bb 47 1a 07 be b3 d2 f2 bc
       -0.09153264 -0.0067174966 -0.13193618 -0.029641485
0002d0 2d 2b 9e bd 2c 4b 95 ba 91 fe 5b bd 3b 48 da b9
       -0.07723079 -0.0011390201 -0.05370957 -0.00041634016
0002e0 95 44 29 bb 09 8f 22 bd fd 7b 52 ba 40 65 ff bd
       -0.0025828232 -0.03968719 -0.000802934 -0.12470484
0002f0 81 ba 0a be 79 55 9b bd 3d 12 a8 b7 75 f3 99 bd
       -0.13547708 -0.07584662 -2.0035654e-05 -0.07517139
000300 02 e7 cd bd 7a 52 dd bd 33 04 fa ba 77 b2 3e bd
       -0.10053827 -0.10806747 -0.0019074738 -0.046556916
000310 c2 c7 9f bc 19 78 14 be 68 25 16 be 38 6f 04 ba
       -0.019504432 -0.14498939 -0.14662707 -0.0005051973
000320 1a a6 41 bd 08 12 8a bc 6a fd b2 bc 83 6a da bc
       -0.047277547 -0.016854301 -0.021849353 -0.026662117
000330 bf 9e 04 bd 44 85 c9 bd 92 22 fc bd a0 28 6c bc
       -0.032377955 -0.098398715 -0.12311281 -0.014413983
000340 99 ff 09 bb 7d 7d 33 bb 0e 9a 87 ba 52 ce 45 bd
       -0.002105689 -0.002738803 -0.0010345594 -0.048292466
000350 11 71 3d bd d2 83 85 bc 42 10 86 bd 89 b1 55 bb
       -0.046250407 -0.016298208 -0.0654607 -0.003260704
000360 f3 1f 2e bb ac 24 b7 bb 94 a6 09 be 31 39 f4 ba
       -0.0026569336 -0.0055890884 -0.13442451 -0.0018632767
000370 87 3e 83 bd b5 c0 af ba 86 96 b3 b7 fd 3e e1 bc
       -0.064084105 -0.0013408872 -2.1408556e-05 -0.027495855
000380 b5 88 96 b8 f3 c0 15 bd 65 b3 16 be 9e 95 02 bd
       -7.178021e-05 -0.036560964 -0.14716871 -0.031880967
000390 44 51 3c bd 33 d1 8d b9 f3 18 2a bd 30 1a 83 bd
       -0.04597594 -0.0002704948 -0.0415277 -0.06401479
0003a0 de 1a 5c bd 6d 0c c0 bc 39 e8 c3 bc 95 63 77 bd
       -0.05373656 -0.023443425 -0.023914443 -0.060397703
0003b0 1d e5 91 bd 60 ed 81 bc 4e 18 4c bd 08 ca 6c bd
       -0.07123778 -0.01586026 -0.049827866 -0.05780986
0003c0 05 03 c9 bd f2 c2 13 be 1b 57 80 b8 87 2c 80 b9
       -0.09815029 -0.14429834 -6.11974e-05 -0.00024447238
0003d0 db a7 f5 ba b3 a8 4b bd 7e ba 49 ba d1 e5 34 ba
       -0.0018742041 -0.04972143 -0.0007695331 -0.00069007004
0003e0 22 3c 24 bc 49 8b 03 be 80 21 d6 bc 1d 10 8d bd
       -0.010024102 -0.12846102 -0.02613902 -0.06887839
0003f0 cc eb 13 be 6a 44 87 bd 32 7e 5a bd b4 db 62 bd
       -0.14445418 -0.06604846 -0.053343005 -0.055385306

out.weight f4 [3, 256]
000000 62 d5 88 bb 79 17 8e 3c 02 e2 e2 bc 02 f3 77 3d
       -0.004175828 0.017345177 -0.02769566 0.060534485
000010 f0 d6 37 3d bb bf 74 bd 56 3f 58 bd 6b 1f 13 bd
       0.044882715 -0.05975316 -0.052794777 -0.035918634
000020 65 55 75 3c 8c 8d 32 3e 78 2c 3f 3e c3 13 58 3d
       0.014973973 0.17436808 0.18669307 0.05275322
000030 c7 35 8b bd 62 55 4c 3d 41 d9 d6 3d b8 0e 58 3e
       -0.067973666 0.049886115 0.10490657 0.21099365
000040 c0 ce ff bb 9a 55 36 3e 57 37 0a 3e 58 2c 93 3c
       -0.007806629 0.17806092 0.13497673 0.01796548
000050 71 da b8 3d 03 58 dd 3c 4e e3 38 bd 10 e6 25 3d
       0.090260394 0.027019506 -0.04513865 0.040502608
000060 a9 06 44 bb 7e f2 7b bd 7d 1e 2e 3a ce a9 f3 bd
       -0.0029911196 -0.061510555 0.00066421164 -0.11897622
000070 20 b8 66 3e 34 ba 37 bd c6 ce 19 3d be 3a 05 be
       0.22531176 -0.04485531 0.03755071 -0.1301069
000080 bc 43 0c be 71 a3 1a 3e 12 ba f0 bc 80 4a dc bc
       -0.13697714 0.1510141 -0.0293856 -0.026890993
000090 b8 ce 05 3e 84 fd 19 bd 5a e4 4f 3d f6 a8 bd 3d
       0.13067138 -0.037595287 0.050754882 0.09260742
0000a0 3c 89 28 3c 66 70 4f bd 95 58 b2 3c 00 84 c7 3d
       0.0102866255 -0.0506443 0.021770755 0.09741974
0000b0 a9 00 4f 3e b1 dc 09 3e bb 9d 85 3d 4d 12 4d bd
       0.20215096 0.13463093 0.06524225 -0.05006628
0000c0 a8 c7 ad bc 1c 49 3d 3e 82 58 6d 3d a4 11 70 3d
       -0.021213368 0.1848492 0.057945736 0.058610573
0000d0 98 fd 0f 3e 86 e2 0a 3d 43 98 af 3d dc 34 21 bd
       0.14061582 0.033907436 0.085739635 -0.03935705
0000e0 9b 7d 1a 3e 75 01 0e 3d d3 77 d6 3c 83 5d a5 3d
       0.15086977 0.03466936 0.026180184 0.080744766
0000f0 44 f4 9b 3c fd a2 12 3c fc 2f f9 3d 92 a2 be bc
       0.019037373 0.008949992 0.121673554 -0.023270879
000100 18 fa 4a 3c 07 60 37 3e 51 ea 64 3e 0f 10 33 3c
       0.012388729 0.17907725 0.2235501 0.010929122
000110 72 eb 81 3d a2 61 87 bc b5 e6 56 bd 4b 58 ed bd
       0.06343736 -0.016526047 -0.052466113 -0.11589106
000120 82 d5 86 bc af 77 2b 3d 80 66 33 3d 70 13 a7 bd
       -0.01645923 0.041862186 0.043798923 -0.08158004
000130 e8 64 cf 3d 9f 97 04 bc d1 39 1a 3e df cb 58 3e
       0.10126668 -0.00809279 0.15061118 0.2117152
000140 1d 16 91 bc 45 28 9f 3d 30 f4 dc 3d 30 75 c6 3c
       -0.01771074 0.07771353 0.107887626 0.024225801
000150 16 7f 07 3e ec 41 23 3e 50 fe 64 3c f2 8c 66 3d
       0.13232073 0.15943116 0.013976648 0.05628676
000160 d0 8d c6 3c aa ed 63 bd 08 98 19 bd 8f 75 59 3e
       0.024237543 -0.055646576 -0.037498504 0.21236251
000170 48 e6 bb 3d 54 a6 7f bd ca 29 1b 3e d9 42 66 3d
       0.09174782 -0.062414482 0.1515266 0.056216095
000180 a9 40 6c 3d 18 19 a7 3c 74 69 bc bb e2 5e 3f bd
       0.057678852 0.020397708 -0.0057498757 -0.046721347
000190 27 ce 01 be 90 86 b3 bd 62 c2 56 bd cc 42 0d 3d
       -0.12676297 -0.087659 -0.05243147 0.03448753
0001a0 f9 ae 0f 3e 50 79 1d 3e f6 29 5d bd 5f a1 d9 bc
       0.1403159 0.15378308 -0.053995095 -0.026566206
0001b0 2c f4 18 3e a4 72 f8 3d c8 b8 36 3c 07 77 26 bd
       0.14936894 0.12131241 0.011152454 -0.040640857
0001c0 f4 19 1e bd 26 e6 5b 3e 6a 75 a8 bd 71 b1 2b 3d
       -0.03859897 0.21474513 -0.0822552 0.04191727
0001d0 76 fe 33 bd 29 08 1b 3e 8e 64 1a 3e f4 7a 0d 3e
       -0.043943845 0.15139832 0.15077421 0.13816434
0001e0 74 94 d4 bd ff 69 2b bd 1e d1 34 bd 00 27 b5 3d
       -0.10379878 -0.041849133 -0.044144742 0.08845329
0001f0 37 36 fb bd 3c ae 40 bd ae bc c3 3b 8c b8 9f bd
       -0.122662 -0.047041163 0.00597342 -0.077988714
000200 4a a1 43 bd fb ef 23 3e 60 6a 3f bd 28 d4 86 3d
       -0.04776124 0.16009514 -0.046732306 0.06583434
000210 c9 11 f7 3d a5 e1 19 3e cf 28 aa 3c 98 b4 25 3e
       0.12063939 0.15027483 0.020771412 0.16182172
000220 2a d7 76 3d bc 75 73 3e 2a fe 21 3d 8b 1f 20 bd
       0.06026379 0.23775381 0.03954903 -0.03909258
000230 58 6f 00 bc 19 3a 5e 3e 84 05 aa 3d c1 a7 26 3e
       -0.007839046 0.2170185 0.08301833 0.1627493
000240 76 22 79 3d 32 a9 80 3d 6b 97 15 bd 76 bd 9a bd
       0.06082388 0.062822714 -0.036521357 -0.07555668
000250 f6 8a 09 bc 6c 9c c5 bd 7e b6 42 3d e2 b2 73 3d
       -0.008394947 -0.09648976 0.04753732 0.059496768
000260 02 09 26 bd 83 c6 22 3e 58 a0 1a 3e fd b8 81 3e
       -0.040535934 0.15896039 0.15100229 0.25336447
000270 0f 06 3a bd ea 4d 7f bd db 84 ee 3c e6 71 cd 3d
       -0.045415934 -0.062330164 0.029116085 0.1003149
000280 37 ab 69 3e 52 45 6e 3e 98 f0 06 bd f0 18 15 3e
       0.2281922 0.23268631 -0.03294429 0.14560294
000290 a2 02 37 bd f0 49 cf ba 12 ae b7 3c 60 c9 ad 3c
       -0.044680245 -0.0015814882 0.02242187 0.021214187
0002a0 1a ed 01 bd 0f dc 14 3c 1c 0a 66 3d 85 3c 91 3d
       -0.03172026 0.009085669 0.056161985 0.07091621
0002b0 6f cc 1a 3e 8c 06 57 3d 29 16 a8 3d 21 2d 7f 3e
       0.15117048 0.052496478 0.08207352 0.24919559
0002c0 e7 2e 33 3d ae c2 6b 3d 94 5f 01 be 32 05 4a 3d
       0.0437459 0.057558708 -0.12634116 0.04932136
0002d0 c2 9d ad bc 1e b1 17 bd fa 81 ab bc 9a b7 00 bd
       -0.021193389 -0.037034146 -0.020936001 -0.031425096
0002e0 fa 4e 1b bd 6b d0 1b 3e df 1e 51 3c b4 58 30 bd
       -0.037917115 0.15216224 0.012763708 -0.043053344
0002f0 e6 d9 bc bd 7c 93 3b 3b 24 06 f7 3b c6 a3 e1 3d
       -0.09221248 0.0028621843 0.007538574 0.110175654
000300 55 f4 7f 3d ae 12 cd bd 70 9c bb bc b8 7a 55 3d
       0.062488873 -0.100133285 -0.022901744 0.052118987
000310 fa 50 da 3d 58 27 48 bd 8c 71 0d be 38 bc 1e bd
       0.10659976 -0.048865646 -0.13812846 -0.03875372
000320 54 1b c8 3c 4e f0 59 3c 30 64 8c bb 10 ef 9b bc
       0.024427094 0.013301922 -0.004284404 -0.019034892
000330 25 21 75 3e 7d 3d 24 be e4 3d 2b 3d a0 a0 0a bc
       0.23938425 -0.16039081 0.04180707 -0.008461148
000340 df 82 32 3c b3 02 b6 3c 34 da 78 bd 08 32 a3 bc
       0.01089546 0.022218084 -0.06075497 -0.019921318
000350 17 4b 6c 3e 5f 89 fe 3d ee d5 0b 3e b8 0f 59 bd
       0.2307552 0.12428545 0.13655826 -0.052993506
000360 b2 a4 58 3d 04 03 1d 3e 7a 2c 23 bd e5 0e e9 3c
       0.05289144 0.15333182 -0.039837338 0.028449485
000370 68 26 0d 3e 68 b0 b4 bb 0d 9e 6f 3d a8 c7 aa 3d
       0.13784182 -0.0055141933 0.05850034 0.08338863
000380 ed f0 be 3c 3a 4a f4 3d 29 50 b5 3d 42 6b 05 bd
       0.023308242 0.1192822 0.0885318 -0.032572992
000390 3c 8d 4e 3e 78 52 32 3b 68 f1 49 3d ec 9f d9 3c
       0.20171064 0.00272098 0.04930249 0.026565515
0003a0 48 8a 3e 3e d8 af 7e bc c7 36 42 3e 62 5f 51 3d
       0.18607438 -0.015544854 0.18966208 0.051116355
0003b0 1c 17 33 3d c0 66 fc ba 21 e2 7d 3e cf 3d 0c 3e
       0.04372321 -0.0019256696 0.24793293 0.13695453
0003c0 df 37 f7 3d 90 cd 1c bd 99 5b b9 bb 43 6e 09 3d
       0.120712034 -0.038281977 -0.0056566712 0.03355242
0003d0 4c ca 80 3c bf bc 0e 3e d5 60 47 3d 32 48 6a bd
       0.015721463 0.13939188 0.04867633 -0.057197757
0003e0 54 e8 45 bd 18 6b 8b bd 30 17 6e bd 0f c5 6e ba
       -0.04831727 -0.06807536 -0.058127582 -0.00091083435
0003f0 4e 13 db bd 33 97 13 3e 9b 09 26 3e 3e 19 96 3b
       -0.106970415 0.14413147 0.16214602 0.004580646

out.bias f4 [3]
000000 5b 5b 0a 3f f8 3b 0b 3f 1c a7 0c 3f
       0.5404565 0.5438838 0.5494249
