DQN_VAE_0.pt (torch_old, 824231 bytes, 4 tensors)

predictor.0.weight f4 [256, 800]
0.013178047 -0.13584448 -0.023277532 -0.10127047 -0.058055423 0.0534973 -0.162019 0.12903796
-0.29492328 -0.011099142 0.34148613 -0.2037861 -0.38468233 0.27360165 -0.07603354 0.13109155
0.18325837 -0.22432712 -0.07446519 0.019097077 -0.035303533 -0.23362094 0.01699879 -0.27283496
-0.0099902395 0.15213086 -0.03726705 -0.25002727 0.08526704 0.08792731 0.14042272 0.09422857
-0.20565532 0.16991378 0.06213078 0.04494611 -0.29623374 -0.06285829 -0.10597346 0.12983079
0.08471955 0.080197506 0.10997982 0.076866925 -0.04587167 -0.2284542 -0.005799209 -0.14836642
0.23580414 0.2042705 -0.49415365 -0.11458599 0.015130401 -0.088886134 -0.010592389 0.46468028
0.20805591 0.08179307 0.15751263 0.09304252 -0.17630048 0.22397985 -0.38777572 0.14758725
-0.39527988 0.20118117 -0.23826562 0.14144084 0.1805583 0.17268899 0.0053126053 -0.22072273
0.2794506 -0.04021547 0.09219773 8.903586e-05 -0.028201047 0.112955734 0.37007028 0.19373013
0.1410123 0.39572647 0.21674538 0.13350828 0.02645626 -0.012924213 -0.2499592 0.026780078
-0.4755134 -0.026625864 -0.20956399 0.12740768 -0.33571222 -0.07435169 0.29038808 0.04329911
0.0028328267 -0.079795025 0.18716478 0.15062697 -0.04069081 0.2675699 -0.28410348 -0.2210449
-0.14860798 -0.09289912 -0.039902397 -0.28502926 0.15122452 0.013580069 -0.1463118 0.12542364
0.5565939 -0.0737076 0.17741667 0.123691216 -0.20990394 -0.033073507 -0.2698018 0.35068348
0.07437673 0.006107353 -0.20840982 0.25042808 0.1989447 -0.058932524 0.05534678 0.56410044
0.18637401 0.24311124 -0.23046938 -0.068903826 0.085665196 0.25975576 0.24093182 -0.043888055
-0.086465664 0.12774119 -0.5083545 0.31281006 -0.14050534 -0.060981944 0.20933443 0.003705027
0.027282512 -0.19198893 0.0064584394 0.09511186 -0.14231917 0.18504798 -0.33740008 0.12711376
-0.05082831 0.18246344 -0.12537454 0.3705278 0.12883532 -0.3278593 -0.07632701 0.075335056
0.06906128 -0.12010038 0.14170402 -0.013830665 -0.09389444 0.05278815 -0.22786899 0.09495728
-0.18221022 0.19846334 -0.11095798 -0.30382314 -0.19235612 -0.080288306 -0.44200516 0.24011768
-0.089423455 -0.14691168 0.13948922 0.04336585 -0.076025404 -0.01485236 -0.14900704 0.1849594
0.20146373 0.010621532 0.26050666 0.2265549 -0.08505942 -0.1960851 0.06868963 0.057724886
-0.10404623 0.10374151 0.046973146 0.31145653 -0.101136684 -0.33586788 -0.055589203 -0.07726499
-0.44136178 0.10700548 0.10246711 0.20477821 -0.010255517 0.15035291 0.38982424 -0.15998648
0.035363633 -0.014002806 -0.13011791 -0.044583395 0.10760858 0.027540341 0.015466157 -0.14895013
0.013331131 0.6245352 -0.029574485 -0.022135973 -0.07663681 0.20309275 -0.3946766 0.18727478
-0.016422166 0.21265943 -0.38745955 0.32773203 0.15741608 0.10990794 0.23013236 -0.15492275
-0.15922204 0.10937897 0.4312933 -0.11018051 -0.4105726 -0.29123545 -0.07775717 0.13208416
-0.17363638 -0.064335905 0.21762268 0.003480054 -0.3231728 0.20660667 -0.16155162 -0.38248497
-0.26894104 -0.18250959 0.46511468 0.22576413 -0.22050431 0.08223841 0.05271497 0.3127957
00000000: bce8 573c d11a 0bbe 86b0 bebc e466 cfbd
00000010: 86cb 6dbd fc1f 5b3d 4fe8 25be 8722 043e
00000020: 2f00 97be 2dd9 35bc 45d7 ae3e 4ead 50be
00000030: 15f5 c4be 8415 8c3e 79b7 9bbd dd3c 063e
00000040: 15a8 3b3e 02b6 65be 3581 98bd 7971 9c3c
00000050: 709a 10bd 543a 6fbe 0c41 8b3c 06b1 8bbe
00000060: 1aae 23bc 31c8 1b3e 56a5 18bd 9303 80be
00000070: 7ca0 ae3d 3c13 b43d f9ca 0f3e e9fa c03d
00000080: 4f97 52be e1fd 2d3e d87c 7e3d 6a19 383d
00000090: f3ab 97be d9bb 80bd 9d08 d9bd 5df2 043e
000000a0: 7281 ad3d 973e a43d 1a3d e13d 686c 9d3d
000000b0: efe3 3bbd e6ef 69be 4a07 bebb 5eed 17be
000000c0: a476 713e 492c 513e b501 fdbe 0fac eabd
000000d0: 80e5 773c ef09 b6bd b38b 2dbc 93ea ed3e
000000e0: 9c0c 553e 2083 a73d fe4a 213e 148d be3d
000000f0: 1d88 34be f95a 653e 8a8a c6be 1d21 173e
00000100: 2062 cabe 7002 4e3e e7fb 73be ded5 103e
00000110: 46e4 383e 62d5 303e 5d15 ae3b 2405 62be
00000120: 2614 8f3e fab8 24bd 2ad2 bc3d c3b8 ba38
00000130: e205 e7bc 5655 e73d da79 bd3e 3161 463e
00000140: 8765 103e a99c ca3e 80f2 5d3e 65b6 083e
00000150: ccba d83c 14c0 53bc 4ef5 7fbe e561 db3c
00000160: 7e76 f3be 7c1e dabc f197 56be 2977 023e
00000170: 79e2 abbe b345 98bd bfad 943e 685a 313d
00000180: f2a6 393b 936b a3bd 20a8 3f3e f53d 1a3e
00000190: 68ab 26bd ecfe 883e 0376 91be 9859 62be
000001a0: b12c 18be e541 bebd b270 23bd 5bef 91be
000001b0: 9ada 1a3e f07e 5e3c c3d2 15be 0e6f 003e
000001c0: f07c 0e3f 03f4 96bd b7ac 353e d251 fd3d
000001d0: 0ff1 56be 1678 07bd 7623 8abe c98c b33e
000001e0: d452 983d 3120 c83b 6269 55be 1c38 803e
000001f0: 29b8 4b3e 3b63 71bd 4eb3 623d e368 103f
00000200: d4d8 3e3e 27f2 783e 2a00 6cbe 731d 8dbd
00000210: 3c71 af3d b5fe 843e d5b6 763e f6c3 33bd
00000220: e914 b1bd 96ce 023e 8523 02bf a428 a03e
00000230: a2e0 0fbe 34c8 79bd c45b 563e 0ad0 723b
00000240: 937f df3c bf98 44be 51a1 d33b 02ca c23d
00000250: 1ebc 11be 387d 3d3e b4bf acbe 1c2a 023e
00000260: 5931 50bd b2d7 3a3e 2f62 00be d2b5 bd3e
00000270: 68ed 033e 2ddd a7be 5651 9cbd 4449 9a3d
00000280: 0070 8d3d 30f7 f5bd dc1a 113e 039a 62bc
00000290: ba4b c0bd 6338 583d 7d56 69be f678 c23d
000002a0: 5195 3abe f939 4b3e f03d e3bd b58e 9bbe
000002b0: 01f9 44be 326e a4bd 804e e2be 69e1 753e
000002c0: a523 b7bd 0470 16be 43d6 0e3e 64a0 313d
000002d0: 35b3 9bbd 5057 73bc 4d95 18be ff65 3d3e
000002e0: 824c 4e3e ef05 2e3c 2161 853e 02fe 673e
000002f0: a233 aebd 88ca 48be 26ad 8c3d ee70 6c3d
00000300: 3116 d5bd 6e76 d43d ea66 403d 3b77 9f3e
00000310: c020 cfbd e0f6 abbe 81b1 63bd 1b3d 9ebd
00000320: 2cfa e1be b025 db3d 47da d13d 61b1 513e
00000330: c206 28bc 1df6 193e 0b97 c73e 7fd3 23be
00000340: 75d9 103d 066c 65bc a13d 05be 149d 36bd
00000350: e361 dc3d 489c e13c c465 7d3c 6286 18be
00000360: d16a 5a3c 8ae1 1f3f 3146 f2bc 8056 b5bc
00000370: c3f3 9cbd 8cf7 4f3e 0d13 cabe f6c4 3f3e
00000380: c787 86bc 65c3 593e 1961 c6be 7ecc a73e
00000390: ae31 213e 6a17 e13d d1a7 6b3e 12a4 1ebe
000003a0: 1a0b 23be 1502 e03d 7ad2 dc3e 52a6 e1bd
000003b0: 9236 d2be d01c 95be 273f 9fbd 1241 073e
000003c0: bccd 31be 8bc2 83bd 7bd8 5e3e 9e11 643b
000003d0: e876 a5be b390 533e ca6d 25be 12d5 c3be
000003e0: a4b2 89be cbe3 3abe 8323 ee3e b62e 673e
000003f0: e2cb 61be 9d6c a83d a7eb 573d c226 a03e

predictor.0.bias f4 [256]
-0.24547213 -0.2693811 -0.3853332 -0.19185163 -0.21587335 -0.04768316 -0.21905826 -0.30229813
-0.065870866 -0.30221617 -0.22113745 -0.3846977 -0.23624349 -0.23644625 -0.102793455 -0.3442947
-1.007086 -0.09019659 -0.22629844 -0.17892595 -0.2558376 -0.12626953 -0.33907613 -0.50740516
-0.07277624 -0.0946141 -0.116588965 -0.111276366 -0.36413062 -0.10514125 -0.20069307 -0.45175856
-0.31967074 -0.4030844 -0.30046293 -0.08745677 -0.32220605 -0.34564242 -0.39837345 -0.3778041
-0.1605007 -0.19501837 -0.36648887 -0.45716047 -0.26198328 -0.421848 -0.4244191 -0.2791374
-0.40596056 -0.3536707 -0.3249323 -0.3509051 -0.4181494 -0.30059865 -0.21039586 -0.2770111
-0.380735 -0.43608466 -0.11976437 -0.24804015 -0.33947444 -0.35641587 -0.3213051 -0.12883304
-0.076350294 -0.32110542 -0.061075274 -0.43001652 -0.2879614 -0.089143984 -0.24331582 -0.27676377
-0.25727823 -0.17148 -0.40658206 -0.41214982 -0.4232614 -0.32947916 -0.40844244 -0.30410033
-0.49281776 -0.31107512 -0.051212274 -0.30525348 -0.44216076 -0.22023389 -0.23945272 -0.20161137
-0.39818758 -0.4301561 -0.11415444 -0.37552142 -0.07411787 -0.20667773 -0.27169523 -0.36831
-0.2522029 -0.42890304 -0.20414336 -0.26468378 -0.23713686 -0.34206027 -0.28725043 -0.29218093
-0.4357451 -0.10257989 -0.04119238 -0.21689811 -0.42123085 -0.35047457 -0.35775128 -0.31923383
-0.13207693 -0.39252278 -0.32628867 -0.29666424 -0.2752224 -0.30634063 -0.4313092 -0.29939443
-0.25156364 -0.16026986 -0.093483575 -0.451406 -0.44464126 -0.35291097 -0.28231114 -0.21028802
-0.2973666 -0.34731466 -0.29054767 -0.3067282 -0.5176615 -0.35145032 -0.3319663 -0.2945156
-0.12471135 -0.36914536 -0.32230875 -0.039786585 -0.34076184 -0.02891843 -0.13810857 -0.18387406
-0.24181603 -0.36536366 -0.21755452 -0.18222766 -0.2362994 -0.21110295 -0.14053404 -0.26420483
-0.48279816 -0.3635664 -0.2455959 -0.41499814 -0.2084474 -0.33425593 -0.082960516 -0.34576058
-0.6711511 -0.47943488 -0.41572595 -0.43558934 -0.21592525 -0.23082414 -0.2997598 -1.1576988
-0.24585433 -0.07694253 -0.29537764 -0.50307 -0.28340888 -0.48221573 -0.40401605 -0.2078804
-0.41500095 -0.40188235 -0.44049746 -0.30360058 -0.32228243 -0.38330588 -0.22076273 -0.17707807
-0.11628205 -0.20932001 -0.39551336 -0.041333232 -0.57104903 -0.25819725 -0.15882026 -0.28157407
-0.18582995 -0.23146605 -0.45506975 -0.5680292 -0.3014307 -0.31826425 -0.26223713 -0.315532
-0.32126755 -0.3492772 -0.45677808 -0.25842845 -0.19629858 -0.3501544 -0.12326299 -0.23143485
-0.1585216 -0.0993528 -0.47652018 -0.37043774 -0.37638208 -0.20314886 -0.16965224 -0.06900966
-0.29895005 -0.086583376 -0.25235298 -0.3289267 -0.45440567 -0.35477644 -0.33917588 -0.22542308
-0.3017617 -0.4765979 -0.4734039 -0.20758215 -0.3311012 -0.31681857 -0.010814693 -0.38041234
-0.34099084 -0.31152424 -0.22998185 -0.038439676 -0.30291343 -0.5248108 -0.3926705 -0.11249382
-0.32871005 -0.22764777 -0.21053776 -0.2540166 -0.34803486 -0.47549176 -0.37110624 -0.31404942
-0.32219848 -0.05205136 -0.2542566 -0.15394278 -0.35618857 -0.3289622 -0.29950428 -0.059742767
00000000: 0c5d 7bbe 52ec 89be 654a c5be c174 44be
00000010: e70d 5dbe 6b4f 43bd cf50 60be d2c6 9abe
00000020: 4ee7 86bd 14bc 9abe db71 62be 19f7 c4be
00000030: d0e9 71be f71e 72be 6085 d2bd 6547 b0be
00000040: 32e8 80bf fdb8 b8bd c7ba 67be 5d38 37be
00000050: 25fd 82be cd4c 01be 639b adbe 4ee5 01bf
00000060: b60b 95bd 0ac5 c1bd 32c6 eebd dde4 e3bd
00000070: 546f babe 4c54 d7bd 7c82 4dbe e64c e7be
00000080: e2ab a3be 1461 cebe 47d6 99be 891c b3bd
00000090: 31f8 a4be 0bf8 b0be 9bf7 cbbe 8a6f c1be
000000a0: 4c5a 24be e5b2 47be 6ea4 bbbe f010 eabe
000000b0: ac22 86be 76fc d7be 764d d9be 19eb 8ebe
000000c0: 10da cfbe 5314 b5be 875d a6be d5a9 b3be
000000d0: ae17 d6be 11e8 99be 0372 57be 66d4 8dbe
000000e0: b3ef c2be 7d46 dfbe 0647 f5bd 3dfe 7dbe
000000f0: 98cf adbe 247c b6be 1a82 a4be cfec 03be
00000100: 8b5d 9cbd ee67 a4be 112a 7abd 202b dcbe
00000110: ad6f 93be 1f91 b6bd c827 79be fbb3 8dbe
00000120: f9b9 83be 7498 2fbe 862b d0be 4d05 d3be
00000130: b8b5 d8be 7eb1 a8be 5e1f d1be 0ab3 9bbe
00000140: 9c52 fcbe 3d45 9fbe f6c3 51bd 2f4a 9cbe
00000150: e562 e2be fe84 61be 1833 75be 3673 4ebe
00000160: 3edf cbbe 6c3d dcbe cec9 e9bd 5844 c0be
00000170: 1ccb 97bd 54a3 53be a31b 8bbe 2193 bcbe
00000180: bd20 81be 2e99 dbbe f50a 51be a284 87be
00000190: 01d4 72be 8622 afbe 7d12 93be bd98 95be
000001a0: fb19 dfbe 6815 d2bd 57b9 28bd 8a1a 5ebe
000001b0: 92ab d7be 6771 b3be 2d2b b7be 9e72 a3be
000001c0: 2d3f 07be bff8 c8be 4f0f a7be 60e4 97be
000001d0: f3e9 8cbe aed8 9cbe 8fd4 dcbe 3a4a 99be
000001e0: f3cc 80be c81d 24be 5174 bfbd b01e e7be
000001f0: 05a8 e3be bfb0 b4be 168b 90be be55 57be
00000200: 6f40 98be 3ad3 b1be aac2 94be 7b0b 9dbe
00000210: 7785 04bf 4cf1 b3be 7df7 a9be c0ca 96be
00000220: aa68 ffbd 9f00 bdbe a705 a5be 42f7 22bd
00000230: 5678 aebe 58e6 ecbc 556c 0dbe 7b49 3cbe
00000240: 9f9e 77be f210 bbbe 9dc6 5ebe e399 3abe
00000250: 78f8 71be 5f2b 58be 28e8 0fbe db45 87be
00000260: 5231 f7be 6025 babe 7e7d 7bbe a37a d4be
00000270: 3c73 55be 9823 abbe 34e7 a9bd 8807 b1be
00000280: 8fd0 2bbf 7d78 f5be 08da d4be 9105 dfbe
00000290: 821b 5dbe 2a5d 6cbe 1e7a 99be 792f 94bf
000002a0: 3dc1 7bbe 0c94 9dbd bd3b 97be 32c9 00bf
000002b0: f81a 91be fbe4 f6be 31db cebe 99de 54be
000002c0: 017b d4be 86c3 cdbe e288 e1be 8971 9bbe
000002d0: 3402 a5be ab40 c4be a00f 62be f453 35be
000002e0: 4925 eebd fc57 56be ba80 cabe 094d 29bd
000002f0: 4530 12bf 6e32 84be c7a1 22be 7a2a 90be
00000300: 354a 3ebe 7005 6dbe e7fe e8be 5d6a 11bf
00000310: 2055 9abe 88f3 a2be f243 86be 698d a1be
00000320: 2e7d a4be 76d4 b2be d1de e9be bc50 84be
00000330: 7f02 49be 7047 b3be 4e71 fcbd 42fd 6cbe
00000340: 7c53 22be 7b79 cbbd 74fa f3be 04aa bdbe
00000350: 27b5 c0be 4106 50be 51b9 2dbe f054 8dbd
00000360: fb0f 99be a052 b1bd 6934 81be 1569 a8be
00000370: dca7 e8be 42a5 b5be 76a8 adbe 4fd5 66be
00000380: 8280 9abe a404 f4be ff61 f2be 6a90 54be
00000390: 1986 a9be 0b36 a2be 1c30 31bc 68c5 c2be
000003a0: 5a96 aebe 1b80 9fbe 5d80 6bbe ec72 1dbd
000003b0: 7817 9bbe 005a 06bf 1c0c c9be 2963 e6bd
000003c0: af4c a8be 7f1c 69be 3697 57be 770e 82be
000003d0: a031 b2be a873 f3be a301 bebe 16cb a0be
000003e0: 33f7 a4be cf33 55bd ec2d 82be 2da3 1dbe
000003f0: 595e b6be bc6d a8be a058 99be d5b4 74bd

predictor.2.weight f4 [3, 256]
0.033652563 -0.05006949 -0.020473097 -0.004518764 -0.0066207433 0.0019371322 -0.05119624 -0.06408438
0.051677655 0.04997794 -0.005999465 -0.014776063 -0.04386572 0.091440074 -0.0064538466 -0.049568787
-0.08083846 -0.0072133983 -0.04972523 0.1705258 -0.058069248 0.011024802 0.022848336 -0.049463153
0.059558835 0.013513668 -0.03173503 -0.15186518 -0.020178055 -0.18933962 0.009586709 0.0024884688
0.0078518195 0.0413872 0.021328751 -0.042666737 0.043390337 -0.009338756 -0.0018034636 -0.020281611
-0.08271179 0.07566854 0.015526009 -0.11214578 -0.14506955 -0.005836004 0.084830165 -0.094908774
-0.01607497 0.11779828 0.01867722 -0.023369541 -0.008652693 0.026374333 0.013741817 -0.10320274
-0.06550922 0.002663596 0.0025276109 -0.010033262 -0.047508787 -0.041021876 -0.010517835 -0.022651477
0.028972648 -0.008832863 -0.018773705 -0.07683111 -0.0093344115 -0.013996314 0.050240505 -0.13999552
0.010607488 0.019159654 0.063894816 0.013717067 -0.028233768 -0.026594436 -0.05082567 -0.011158884
0.08598 -0.038538802 -0.00799727 -0.0010266934 0.002205741 0.0024078432 -0.038776033 -0.055283193
0.013132473 -0.050041117 -0.00935575 -0.0088314265 0.020181695 -0.033195417 -0.04577922 -0.030803552
0.008238765 0.03495831 0.028817946 0.00048075602 -0.062351573 0.0266571 -0.04513206 -0.0020817672
-0.028598206 -0.051329907 -0.038404733 -0.006120675 0.003761005 0.03761937 0.0786059 -0.094827585
-0.08540272 0.058929365 0.068733424 -0.019435292 -0.0039620115 -0.025222203 -0.0358156 0.08106877
-0.06216136 0.0029097944 0.044568412 0.00465363 -0.050898924 -0.0050215097 -0.09644925 -0.02023701
0.12440691 -0.027062016 0.015245893 0.05540727 -0.026769754 -0.014751237 0.07751719 -0.05491809
-0.009063556 -0.024974255 -0.01606057 -0.0050310655 -0.07682064 0.0075981785 0.08134941 -0.008699308
-0.022891939 -0.020852497 0.03583857 -0.052159656 -0.038678013 -0.011326283 0.00928164 0.015695777
-0.033195116 -0.03620316 0.030180326 0.20571172 -0.062207684 -0.019096956 0.0011929487 0.00039425178
-0.02902084 0.00064453034 0.0709548 -0.034163672 -0.059267364 -0.039492253 0.0013474424 0.06897454
0.033221006 -0.043384295 -9.662152e-05 -0.111566216 0.03642677 -0.013534563 -0.09274784 -0.06714821
0.051238347 -0.00037669585 0.001562449 -0.012777708 -0.021703716 -0.0010968075 0.06340136 -0.08370254
0.006769763 0.061669208 -0.06265788 0.07986122 -0.06391722 0.08142053 -0.012036661 -0.031891707
-0.02386727 -0.096068315 -0.0111862905 -0.07436624 -0.022140598 0.033895586 -0.09046627 -0.074321434
-0.0054228473 0.031809203 0.07559758 0.03768259 0.09073269 0.0002073248 0.0027573463 0.035257876
-0.010563507 -0.0263888 0.017631263 0.0057121385 -0.0060479417 -0.056826483 0.011252439 0.03213478
0.025935493 0.015266251 -0.03351358 0.008178344 0.0033289718 -0.09254431 -0.00029202888 0.0013010238
-0.04765506 0.008215551 0.013727179 0.028446456 -0.004393101 -0.0348263 -0.020723365 0.0020880231
-0.052428473 -0.01862176 -0.011250404 -0.16398337 0.008393691 -0.13702147 0.079681784 -0.04329066
0.047566712 0.009447272 -0.06295897 0.0023135084 0.08306564 -0.04394754 0.023293981 -0.008404788
-0.053636633 0.0123434635 0.054891378 -0.0034029365 0.023724802 -0.022630693 -0.011098877 -0.061220735
00000000: 45d7 093d aa15 4dbd 32b7 a7bc 2412 94bb
00000010: d2f2 d8bb 5fe7 fd3a 26b3 51bd ac3e 83bd
00000020: f3ab 533d abb5 4c3d 2997 c4bb 4d17 72bc
00000030: 8bac 33bd ef44 bb3d ca7a d3bb a408 4bbd
00000040: a28e a5bd 5f5e ecbb afac 4bbd 519e 2e3e
00000050: 05da 6dbd 5fa1 343c 6f2c bb3c e099 4abd
00000060: f7f3 733d 6f68 5d3c 97fc 01bd 8c82 1bbe
00000070: 734c a5bc 3fe2 41be 9211 1d3c 9415 233b
00000080: eba4 003c a085 293d a2b9 ae3c 51c3 2ebd
00000090: 11ba 313d 9501 19bc 3262 ecba 9f25 a6bc
000000a0: cd64 a9bd 1cf8 9a3d cd60 7e3c b0ac e5bd
000000b0: 1d8d 14be f33b bfbb 70bb ad3d 885f c2bd
000000c0: a8af 83bc 3a40 f13d f800 993c 7b71 bfbc
000000d0: 06c4 0dbc fc0e d83c 5c25 613c f55b d3bd
000000e0: b329 86bd ba8f 2e3b 46a6 253b 8d62 24bc
000000f0: 9398 42bd 8e06 28bd ff52 2cbc 978f b9bc
00000100: 0c58 ed3c b6b7 10bc 50cb 99bc a159 9dbd
00000110: 5cef 18bc cc50 65bc fdc8 4d3d fc5a 0fbe
00000120: 08cb 2d3c b5f4 9c3c 49db 823d 8dbd 603c
00000130: 814a e7bc 93dc d9bc 942e 50bd c0d3 36bc
00000140: 4816 b03d ddda 1dbd fb06 03bc 1d92 86ba
00000150: 318e 103b e8cc 1d3b 9ed3 1ebd a170 62bd
00000160: 9629 573c eaf7 4cbd dc48 19bc b0b1 10bc
00000170: 1554 a53c ebf7 07bd fe82 3bbd bb57 fcbc
00000180: e3fb 063c 7230 0f3d 9d13 ec3c fb0d fc39
00000190: 5d64 7fbd fe5f da3c 65dc 38bd 426e 08bb
000001a0: c946 eabc 4f3f 52bd 484e 1dbd f18f c8bb
000001b0: 317b 763b c516 1a3d 21fc a03d f734 c2bd
000001c0: 9fe7 aebd eb5f 713d 1cc4 8c3d c336 9fbc
000001d0: c3d3 81bb cb9e cebc 61b3 12bd 6207 a63d
000001e0: e99c 7ebd 40b2 3e3b 5e8d 363d 7a7d 983b
000001f0: 647b 50bd 7a8b a4bb 2f87 c5bd 16c8 a5bc
00000200: 0dc9 fe3d 29b1 ddbc e9c9 793c bcf2 623d
00000210: 3e4c dbbc 2caf 71bc 55c1 9e3d cbf1 60bd
00000220: 4f7f 14bc cf96 ccbc 7591 83bc a3db a4bb
00000230: 2454 9dbd 24fa f83b 859a a63d 8b87 0ebc
00000240: e087 bbbc dbd2 aabc 77cb 123d 5da5 55bd
00000250: d66c 1ebd e091 39bc 0512 183c 6e94 803c
00000260: 9af7 07bd c449 14bd bb3c f73c 18a6 523e
00000270: 7ccd 7ebd 3871 9cbc b75c 9c3a 94b3 ce39
00000280: 1dbd edbc b3f5 283a c050 913d 35ef 0bbd
00000290: 56c2 72bd a1c2 21bd aa9c b03a 8642 8d3d
000002a0: c012 083d bbb3 31bd 49a1 cab8 d47c e4bd
000002b0: 3d34 153d 12c0 5dbc 94f2 bdbd 0085 89bd
000002c0: 4ddf 513d 437f c5b9 17cb cc3a 9759 51bc
000002d0: fecb b1bc c1c2 8fba 92d8 813d 3d6c abbd
000002e0: e3d4 dd3b da98 7c3d c652 80bd 488e a33d
000002f0: 08e7 82bd cfbf a63d 6a35 45bc e1a0 02bd
00000300: 4b85 c3bc 77bf c4bd b446 37bc 544d 98bd
00000310: 3360 b5bc 19d6 0a3d 6146 b9bd d635 98bd
00000320: 24b2 b1bb 5e4a 023d e7d2 9a3d 0f59 1a3d
00000330: 10d2 b93d 5465 5939 98b4 343b 906a 103d
00000340: 8f12 2dbc 532d d8bc 706f 903c e42c bb3b
00000350: d02d c6bb e3c2 68bd 265c 383c c29f 033d
00000360: ac76 d43c 4c1f 7a3c 8945 09bd 76fe 053c
00000370: e12a 5a3b df87 bdbd 741b 99b9 1d87 aa3a
00000380: f431 43bd 859a 063c f6e7 603c 8b08 e93c
00000390: 01f4 8fbb 06a6 0ebd 0cc4 a9bc 37d7 083b
000003a0: 3dbf 56bd a98c 98bc 9d53 38bc 42eb 27be
000003b0: b185 093c 5b4f 0cbe 3430 a33d 8c51 31bd
000003c0: 50d5 423d bbc8 1a3c a2f0 80bd 3b9e 173b
000003d0: 511e aa3d 5602 34bd 05d3 be3c 3cb4 09bc
000003e0: 16b2 5bbd 3d3c 4a3c c8d5 603d cd03 5fbb
000003f0: 845a c23c 0164 b9bc 10d8 35bc 98c2 7abd

predictor.2.bias f4 [3]
0.6562833 0.6864441 0.68879384
00000000: 2f02 283f cdba 2f3f cb54 303f
