weights/DQN_vanilla_03_01_2019.pt (torch_old, 456397 bytes, 10 tensors)

conv1.weight f4 [8, 3, 5, 5]
00000000: e047 9ebd 257d 2bbd aa81 cdbc 4068 9cbd
00000010: a548 28bd af6e 143d 9a46 d8bd 9340 5cbc
00000020: adb5 4d3c a30d 55bd bb31 01be 6f99 173d
00000030: 4c44 0abe f3d3 2d3d 9609 a2bd b43d 11be
00000040: 094d 1ebe 6316 23be 2e36 3bbe 135f 06be
00000050: c72b febd 9286 bebc d7f0 bfbd 7964 2ebe
00000060: 92bc bdbc 3712 ffbd 6e21 afbd 3e6c ea3c
00000070: b9a3 b9bd 6f4f 14be 1d42 083c 9f7d 90bd
00000080: fb64 93bd bed5 84bd 3623 b33c 423c a8bd
00000090: e03e 89bd ca8c 21be 53e1 2c3d 09e1 23bd
000000a0: 8744 2a3d c201 2fbe 17cf babd 85ba 38be
000000b0: 23d6 67bd b59e 08be 49b5 6abd 88c7 05be
000000c0: 4c7f 37bb 8dc2 abbd 01f5 28bd 7a5c c1bd
000000d0: e678 993c 8f5c 67bd 863c 04be 4cc9 4fbb
000000e0: 6585 e3bd 03dc 7ebc 32b5 54ba b081 2ebe
000000f0: 9e74 89bd da04 f4bc 29ad eebd 37e1 3ebe
00000100: 2381 0ebc be65 a13c 49f9 33be 9af7 c8bc
00000110: a2e0 c5bc 3d9a ccbd 0f83 c6bd fd26 71bd
00000120: 7ac7 e7bc 6648 fbbb 089e 14be b18a 4bbe
00000130: f83b e8bd e5ba 723c 6eab 2839 ef09 00be
00000140: 8a0c 22be 81ce 563c c72c 1abe 3510 00be
00000150: 1b97 45bc 5157 d2bc f3aa 51be 94c9 52be
00000160: dba4 26be cc49 d7bd b845 ddbc 491a 50be
00000170: 0ecd 7cbd ce7e d6bd 73a7 76bd 5239 debd
00000180: 1b25 4bbe 5fc1 6ebd 06fe bbbd 4642 ebbd
00000190: 64a1 2fbe e411 e7bc ce93 4bbe cf3b afbc
000001a0: e01f 0bbe 2982 92bd e6a4 24be 3d6b 1fbe
000001b0: 41a9 4abe 169d 76bd eaee 0fbe 8d48 00be
000001c0: ab3f bebc f936 3abe cc14 cebd 8127 fcbd
000001d0: 8c19 10be 532d a3bd 35fa 053b 28fe b8bd
000001e0: 42a7 6c3b b96a a4bd 37ab a5bd ac03 bcbd
000001f0: e2ce bcbd 82db 45bd b5ec 30be 3473 10bd
00000200: 3617 54be 3572 44be 084f 37be 2586 44be
00000210: a426 0bbe 9ea3 1bbd 711b 2fbd a459 fabd
00000220: 3096 8abd 31c1 0dbe ec97 15be 990a 2dbe
00000230: f427 cebd cb28 a3bd 16c1 313c 9a9e 72bd
00000240: 17ee 2abe f6f0 3abd 391d 0dbd 49ad 67bc
00000250: b772 22bd 042c e8bd 6915 3ebe ebb1 19be
00000260: 95a0 28be 5243 29bd a1e5 5fbd 37b5 e6bd
00000270: e880 adbd 06c1 1fbe 9af0 a6bd f128 fcbd
00000280: c9b8 44be b822 48be 6a78 0a3c 8984 dbbd
00000290: c38c 0bbe e26b 43be 581d 5abe 2b9f 8cbd
000002a0: 2b3a b8bc 1701 17be 52e7 22bc 5248 35be
000002b0: d90e 27bd 7a2a 05be aa9c b4bd d0ee 4fbe
000002c0: 0069 2cbe 62ea 85bd 748e bbbd 83bb 60bd
000002d0: 22c4 f6bd 78ef 19be 1920 95bc 0e1f 0ebc
000002e0: 6bd0 1dbe e547 10be 819b 1abe af52 2fbd
000002f0: e103 7fbb 85b9 53be 90ed 47be 32cc 0bbe
00000300: 74fa d4bd 902c 20be 4efd 94bd bb7d 35be
00000310: d025 ecbc 2b55 0d3c d00f 0ebe ce01 cabd
00000320: 4a6d 55be 9d9a 30be 344d 58bd 9c80 a3bd
00000330: 4e93 3abe ab3f 39bd 06b4 a83b 513b 47be
00000340: 6db5 58bd debb e73b 1602 51be f96a 50be
00000350: 634b 54bd 63f2 4fbc d4c1 3abd 84ec 5a3c
00000360: c6e1 57be b95b 0abe 6115 11be a9cc 47be
00000370: f17a 29be f818 0ebe 589a dcbd 392f 16bd
00000380: 74d8 a8bd 40de 6fbb 1aa7 a03d f80d 33bc
00000390: 46ef a53d de9b 17bd a8f5 043d 5822 cd3c
000003a0: a4fe e7bc baa8 8abd 84a9 8dbd 70af f7bc
000003b0: 38a5 0c3d 1877 87bc a086 dc3c 522b d43d
000003c0: ec44 3c3d 00aa 633a 00d4 35bb d812 55bd
000003d0: 4c77 1ebd 1234 d4bd 8c2a 80bd 989f bbbd
000003e0: df44 dbbd 16f6 a5bd c091 25bd b471 96bc
000003f0: 6846 c83d d0bc dfbb 0078 b7b9 8ca4 043d
-0.07728553 -0.041867394 -0.025086243 -0.076370716 -0.041084904 0.03623837 -0.10560341 -0.01344313
0.012555522 -0.052014958 -0.12616627 0.03701156 -0.13502616 0.04243846 -0.079119846 -0.14183694
-0.15459074 -0.15926509 -0.18282387 -0.13122205 -0.124106936 -0.023257528 -0.093721084 -0.17030515
-0.023161206 -0.12454646 -0.08551298 0.028616067 -0.09064431 -0.14483427 0.008316544 -0.0705521
-0.07196995 -0.064860806 0.021867376 -0.08214618 -0.067014456 -0.15776363 0.042207073 -0.040009532
0.04156926 -0.17090514 -0.091215305 -0.18039902 -0.0566007 -0.13341792 -0.057301793 -0.13064396
-0.0027999459 -0.08386717 -0.04124928 -0.09441467 0.018734407 -0.056484755 -0.12913713 -0.0031705676
-0.11109427 -0.015555385 -0.00081141584 -0.1704166 -0.06711696 -0.02978747 -0.116541214 -0.186406
-0.008697781 0.019701835 -0.17575563 -0.024532128 -0.024154965 -0.09990356 -0.09692966 -0.058875073
-0.02829336 -0.0076685427 -0.14513409 -0.19877125 -0.11339563 0.014815067 0.00016085591 -0.1250379
-0.15825096 0.013110758 -0.15056144 -0.12506182 -0.012059952 -0.025676401 -0.20475368 -0.20584708
-0.16273825 -0.105121225 -0.027010784 -0.20322527 -0.061718993 -0.10473405 -0.060218286 -0.10850777
-0.19838373 -0.05828988 -0.091793105 -0.1148725 -0.1715141 -0.028206773 -0.19880602 -0.021390824
-0.13586378 -0.07153732 -0.16078529 -0.15568252 -0.19791128 -0.060208403 -0.14055982 -0.12527676
-0.023223719 -0.18185033 -0.100625604 -0.12312222 -0.14072245 -0.07967629 0.0020443324 -0.090328515
0.0036110436 -0.08028168 -0.08089297 -0.09180388 -0.09219147 -0.048305042 -0.17277797 -0.035266116
-0.2071198 -0.19184192 -0.17901242 -0.19191797 -0.13588959 -0.037997834 -0.04275078 -0.12224129
-0.06766927 -0.13843228 -0.14608735 -0.16898574 -0.10066214 -0.07966765 0.010849258 -0.059233285
-0.16692387 -0.045639955 -0.034451697 -0.0141404355 -0.03966018 -0.1133652 -0.18562855 -0.15009277
-0.16467507 -0.041323967 -0.05466235 -0.11265033 -0.084718525 -0.15600976 -0.0815136 -0.123124965
-0.19211115 -0.19544494 0.0084515605 -0.107186384 -0.13627915 -0.19084123 -0.21300256 -0.068662964
-0.022488674 -0.1474651 -0.009942846 -0.1770337 -0.040785644 -0.13004485 -0.08818944 -0.20305943
-0.1683693 -0.065388456 -0.0915803 -0.054866325 -0.12049128 -0.15032756 -0.018203782 -0.008674396
-0.15411536 -0.14089926 -0.15098383 -0.042803463 -0.0038912224 -0.20676239 -0.19524217 -0.13652113
-0.10399333 -0.15641999 -0.072748765 -0.17723744 -0.028826624 0.008626263 -0.1387322 -0.098636255
-0.20842472 -0.1724648 -0.052808 -0.07983515 -0.18220255 -0.045226734 0.0051484136 -0.19456221
-0.052907396 0.007071956 -0.20410952 -0.20353307 -0.051829707 -0.012692067 -0.045595005 0.013362054
-0.2108222 -0.13511552 -0.14168312 -0.19511665 -0.16550805 -0.13876712 -0.10771626 -0.03666613
-0.0824441 -0.0036600977 0.07844372 -0.010928623 0.081022784 -0.03701388 0.03246084 0.02504079
-0.028319664 -0.06770463 -0.06917098 -0.030235022 0.034337252 -0.01653628 0.026919663 0.10359825
0.045964167 0.0008684695 -0.002774477 -0.052019924 -0.03868799 -0.10361494 -0.06258115 -0.091612995
-0.107064955 -0.08103578 -0.0404222 -0.018364765 0.09779054 -0.006827928 -0.00034993887 0.032383487

conv1.bias f4 [8]
00000000: 691f 91bd 2d05 42bd 4766 68bd 58ab 28bd
00000010: 524f 7cbd de5a e03b e32d 57be 8cf8 5e3d
-0.07086069 -0.047368217 -0.056738164 -0.04117903 -0.061599083 0.0068467697 -0.21013598 0.05443625

conv2.weight f4 [16, 8, 5, 5]
00000000: ca71 2abe 2c91 b93b fff0 853d ca00 45bc
00000010: f376 3ebd 894d 2abe d398 3dbe 31d9 82be
00000020: f6b8 743d da6b 073d 83c9 5cbe dace 26be
00000030: 4960 05be 8064 28be 7332 d53c 1a5c 7f3d
00000040: 64f5 30be 3aef 28be 6ee1 0d3c 19fa 53be
00000050: 86bc 663d 4f58 8d3d 4ea3 1e3d 9a85 0dbe
00000060: 039f 5dbe c584 f8bd 60ee b03b 6b0d 89bd
00000070: d866 02bc 5a72 8c3d d70f 13be a8c7 0e3d
00000080: affd 2bbc ced2 023d ae4d 56bc 7f2f a83d
00000090: 54e8 5d3d e58b 5d3d 8f83 8a3d 79da 983b
000000a0: 1ed3 b3bc 68f3 123c ccaf 413d 0c5f e53c
000000b0: 8f7b 5dbd 4f3f 39bc 8810 433d 50e4 8dbb
000000c0: 0ea0 363d 2437 053d 9066 563c 9fde 8c3d
000000d0: 78bd 7abd c07e 5c3c a44f d73c c1f1 e9bd
000000e0: 2418 ba3c deba 8bbd cee0 743d 753a 9bbd
000000f0: 0289 653d eaee 683d 9035 03bd 2245 373d
00000100: ab3b 813d f4f7 7fbd 2c92 a53c 1594 10be
00000110: 40fa e7ba 3e06 0ebe b01b 873c 4252 543d
00000120: c08a 963a 3d19 82bd a071 8e3c 003b 9e3a
00000130: c058 f5bb 7c75 c63c 3056 df3b e2e3 6e3d
00000140: 6516 80bd 8153 843d d04b 213c a6dc 73bd
00000150: 24db c3bc eb74 813d 8cff 9d3c 258a 88bd
00000160: c07b 35bc 3079 d73b ce05 6f3d 207d 743c
00000170: 9009 bc3b acc6 0bbd 8b51 863d b092 c7bb
00000180: fa28 3c3d d22f 40bd fad2 88bc 8934 73bd
00000190: 5c82 77be 481b 58bd 29d5 86bc 7426 09be
000001a0: 6fdb 30bd 8033 08be 707f 3bbe 72e0 2e3d
000001b0: a284 53bc 48d2 71bd fba9 803c 0365 04be
000001c0: b219 863a e7ef 4fbe 81ae 2bbe fe28 293d
000001d0: 1e5a 4f3d 890a 03be f4f7 10bd a2dd 453d
000001e0: 869f 493d 1c49 7cbe 4e1d 263d a967 86bc
000001f0: d6b4 3d3c cdf9 01be 0204 13be 669c 213e
00000200: 0ec0 df3d 52d0 193e 5826 1dbe d268 a5ba
00000210: 44e9 2abe 1487 1e3e 5d74 cd3d 7543 fb3d
00000220: f8ac 1d3e 51dd 1a3e a398 363d baf6 e43d
00000230: 57a0 3e3d 8838 2e3d fb8e 0f3e c835 2a3e
00000240: 430f d73d edcc 3e3d ce80 233d 025f b53d
00000250: 55b2 373d f766 d03d 613f 7c3d 0ee0 223e
00000260: 0b8d 813d 76c7 213d ac60 1f3e e927 d13d
00000270: 087a a23d 50ea 093e a8ab 293e e231 2c3e
00000280: 75e4 173e 0f12 ca3d 10d1 c93d 54f8 5f3d
00000290: f21b 093e 233d 2e3e 9b75 843d 6740 643d
000002a0: 58be 0e3e 2306 bb3d 9006 1e3e 8cfb 133e
000002b0: 57de 2a3e 5227 d63d 1280 013d fa35 673d
000002c0: 9315 8f3d 80c9 59bd 51e7 873d 0042 653c
000002d0: 58e5 9ebc 3626 4f3d d2b3 1b3d 245a db3c
000002e0: 40da 203b 7ce7 56bc 02eb 093d 3816 70bc
000002f0: c0f3 1c3c 88ae 6dbd b0f3 07bc 5bd0 84bd
00000300: 520b fabc 4c9f a23c 8426 fdbc 8029 033a
00000310: a074 023c 0c19 18bc caa8 773d aecc 643d
00000320: 1983 27bd 7546 80bd 645d edbb 37a2 b5bd
00000330: 53b5 d73c a88c 00be 2437 c5bb e249 60bd
00000340: c4d6 e6bb 61e9 38bd 93a1 993c 6a65 323d
00000350: 11ca afbc 379b d7bd e956 8abd 75b6 c9bc
00000360: ff62 82bd c2c5 2dbc a4cc 48be 9178 4fbe
00000370: 306a a4bd 7a55 00be 8855 04be aba9 21be
00000380: 447f 1abe 449c 963c 30ba c7bc e7d1 823d
00000390: 3e96 3f3d af61 46bd a81e 063d fec9 783d
000003a0: fac0 38bd bae5 703d 642a 8c3d c7ac 8a3d
000003b0: 00cb e13b 9291 483d 6c2a c43c 304b 72bd
000003c0: eef7 4a3c 7003 863b 0d7e 43bd 9026 88bd
000003d0: bcab 623d 4ce7 a83c 8ef3 16bd f39b 143c
000003e0: 6a5c 723d 683c 593c 8071 e1ba 285d 15bc
000003f0: 5262 1d3d 002b dcba 8a98 59bd 15ab 28be
-0.1664497 0.005663058 0.06540107 -0.012024114 -0.046500158 -0.1663114 -0.18515329 -0.2555633
0.059746705 0.03306184 -0.21561246 -0.16289845 -0.13025011 -0.16444588 0.026025033 0.062343694
-0.17281109 -0.16497508 0.008659704 -0.20700873 0.056332134 0.06901609 0.03872996 -0.13820496
-0.2164269 -0.12134699 0.0053995103 -0.066920124 -0.00795909 0.06857748 -0.14361511 0.034858376
-0.010497495 0.03193932 -0.013080044 0.08212184 0.054176643 0.054088492 0.06763374 0.004664716
-0.021951254 0.008969165 0.047286794 0.027999423 -0.054072913 -0.011306598 0.047623187 -0.0043301955
0.044586234 0.03252329 0.013085976 0.06878399 -0.061215848 0.013457954 0.026283093 -0.11423064
0.02271659 -0.068227515 0.059784703 -0.07579509 0.056038864 0.05686847 -0.032033503 0.044743665
0.06310209 -0.062492326 0.020211302 -0.14118989 -0.0017698482 -0.13869569 0.016492695 0.05183626
0.0011485443 -0.0635247 0.017388165 0.0012072027 -0.0074873865 0.024225943 0.0068156943 0.058322795
-0.062542714 0.064612396 0.009844735 -0.0595366 -0.023908205 0.063211285 0.019286893 -0.06666974
-0.011076868 0.006575726 0.058355145 0.01492241 0.0057384446 -0.034125015 0.06558522 -0.0060904846
0.045937516 -0.046920605 -0.016702164 -0.059376273 -0.24170822 -0.052760392 -0.016459065 -0.13393575
-0.04317802 -0.13300896 -0.18310332 0.042694516 -0.01291004 -0.05903843 0.015706053 -0.12929158
0.0010231046 -0.20306359 -0.16765787 0.04129886 0.05062305 -0.12796988 -0.035392717 0.04830707
0.0492244 -0.24637264 0.04055529 -0.01640685 0.011578759 -0.12692948 -0.14356998 0.15782318
0.109253034 0.15020874 -0.15346658 -0.001261974 -0.16690546 0.15481216 0.1003196 0.12268726
0.15398014 0.15123488 0.04457916 0.11179872 0.04653963 0.04253438 0.14019386 0.16622078
0.10500958 0.04658215 0.03991776 0.08856012 0.044847805 0.10175889 0.06158388 0.15905783
0.0632573 0.03949686 0.15564221 0.102126904 0.07933432 0.1346829 0.16569388 0.16815904
0.14833243 0.09866726 0.09854329 0.054680184 0.13389567 0.1701551 0.06467744 0.05572548
0.13939798 0.0913203 0.15432191 0.14451426 0.16686378 0.104567185 0.031616278 0.05644796
0.06986537 -0.05317068 0.06635917 0.013992786 -0.019396469 0.05057355 0.038013287 0.02677638
0.002454415 -0.013116714 0.033671387 -0.014653735 0.009579599 -0.058027774 -0.008297846 -0.06485053
-0.030522976 0.01985135 -0.030902155 0.00050034374 0.007962376 -0.009283315 0.060463704 0.05585926
-0.04089651 -0.062634386 -0.007243799 -0.08868831 0.02633158 -0.12553656 -0.006018536 -0.05475796
-0.007044645 -0.045144442 0.018753802 0.043553747 -0.021458657 -0.10527652 -0.06754858 -0.024623135
-0.06366538 -0.010606231 -0.19609314 -0.20260836 -0.08028066 -0.12532607 -0.12923253 -0.1578738
-0.1508761 0.01838506 -0.024380773 0.06387692 0.04677414 -0.048433002 0.03274408 0.06073951
-0.04510591 0.058812834 0.06844023 0.06771236 0.0068906546 0.04896695 0.02394601 -0.059153736
0.012388213 0.0040897653 -0.047727633 -0.0664798 0.05533956 0.020618103 -0.036853366 0.009070384
0.059170164 0.013259031 -0.0017199963 -0.009116448 0.038423844 -0.0016797483 -0.05312399 -0.16471513

conv2.bias f4 [16]
00000000: 2762 40bb 55c4 aabc 3561 25bd 635e 94b9
00000010: 6a9b b8bd b3c1 7ebd 67fb eebd 167c 2abd
00000020: 35bb 683d 50cb 17be db0b 1bbd a304 02be
00000030: 0ac1 e4bd 8395 89bd 54de 77bd 17e9 0cbe
-0.0029355378 -0.020845572 -0.040375907 -0.00028299083 -0.09014018 -0.062196445 -0.11669045 -0.041622244
0.05681916 -0.14823651 -0.037853103 -0.12697081 -0.11169632 -0.0671797 -0.060514763 -0.13760792

conv3.weight f4 [16, 16, 5, 5]
00000000: b287 123d 72d3 32bc d90c 85bc 99c4 593b
00000010: ce8c 6c3c 5e59 673c 23e5 d73c 8c86 30bd
00000020: 51ea 98bc 52c4 343d f5a6 46bd 6420 373a
00000030: c3ae a33c 2e9d 463d a29e 3b3d 4c3b 973b
00000040: ecb1 db3b beed 063d 5686 233d 235e fd3c
00000050: 7369 26bd d5ab 2bbd 4e83 343c de14 713c
00000060: 3e6d 083d f528 44bd ef82 6fbd 9ec0 13bd
00000070: e708 e9bd d1ab 07be 270d 32bb 824a 06be
00000080: 9b2d bebd 4235 cebd 9533 88bd b2e8 b0bd
00000090: 1a63 f7bd 25dc 88bd ac1c 9cbd 1b8c e5bd
000000a0: a3b0 78bd c8df cdbd c9d8 5cbe 060b 06be
000000b0: 208c 36be 94d5 f9bd c1e9 c9bd b89d e1bd
000000c0: 0e5f 9ebd 83c2 02be e23e 253d 3e00 243d
000000d0: d6bd 61bd 5b19 fc3c 182e 5dbd c2f9 1e3d
000000e0: 5a6b 40bc eb47 43bd ba52 00bd c4e0 55be
000000f0: d673 153d 79cc c0bc 4605 2f3d 2461 0bbd
00000100: 3621 6fbe 5375 23bd 2787 873c ae5a 1c3c
00000110: 1640 383d fb9b 34be 0a9a 033d 02dc 303d
00000120: 1553 3ebd c33b 23bd d427 2fbe 51bc d1bc
00000130: 1d39 86bc b64f 01bd 46c1 413c c7b7 4fbb
00000140: 6663 21bd 7a36 433d 926e 203d e008 4bbd
00000150: 2af7 5abc f182 44bd 46c5 433c 0d32 b8bc
00000160: 2a52 233d 5b31 833c 02ef 5ebc 026e 2a3d
00000170: cde2 efbc 0bcd 8d3c 6361 aa3c 49cc a0bc
00000180: ab98 a73c 44b2 a7bb 8cfb bd3b ba21 78bc
00000190: 3fa1 e23d c800 e43d 0f65 703d 6b0b 3b3d
000001a0: 01ae 023e bbd1 733d 5fc6 053e de07 963d
000001b0: 77ad cd3d a056 383d 9c97 913d 69fd ae3d
000001c0: 74b3 f63d dd0f ba3d 742e 253d 7b08 513d
000001d0: 085d 7a3d 345e b93d 6005 e93d 63e7 e63d
000001e0: 37b9 063e 55a4 df3d 5321 b13d 63b5 6b3d
000001f0: d91e be3d 05d3 00bd fe99 e13c 76fe 82bc
00000200: 97f9 203d ad9c edbc 5835 fcbb 6a78 99bc
00000210: 4d58 1cbd 9201 40bd 1090 3abd 12bb d93c
00000220: c296 c03c 2370 1e3d 0c41 35bc 3444 2bbc
00000230: d09f 3abd 0332 23bd d195 083d 8912 233d
00000240: e012 25bb dffd 103d 9b17 0b3d cc1e 243c
00000250: 08a6 0c3c 4f77 463d db82 fabd aab4 90bd
00000260: 5e1d edbd 236b 5abd 75fc 88bd 11dd 98bd
00000270: 45e6 8ebd 4adf d4bd 4f58 75bd 0ad8 b4bd
00000280: 00a8 dbbd 0d6c 6cbd e6c8 e2bd e2ba 16be
00000290: fb9e 10be e0d6 9ebd 43e3 8bbd 6344 65bd
000002a0: ab32 f3bd 476d 95bd 7d1f b8bd 5dac cbbd
000002b0: 7525 65bd babf d1bd 7fd6 58bd 2920 5c3d
000002c0: 24a4 693d b671 803d b8e5 103e 2e35 db3d
000002d0: b7ca bd3d bdb8 fd3d f816 a23d f770 fa3d
000002e0: 3511 d43d bd0f 7e3d bfd5 9f3d 9485 b13d
000002f0: cc13 c63d 0db3 973d c91b 183e 7c85 c23d
00000300: 8e5a 923d 8cca 9f3d de3e 143e 36fc 5b3d
00000310: 642d 6b3d 8c17 c23d e842 f13d 072a e63d
00000320: ca42 0dbe 69b9 70bd 5d7c 10be af67 a3bd
00000330: 0b60 03be 754d 08be 80bf 06be c348 acbd
00000340: 4764 9ebd 51f9 18be f73b 06be 8232 02be
00000350: 7dee 88bd 4418 84bd b2df 10be d14e f3bd
00000360: bede ccbd c119 02be d8cf 12be c083 97bd
00000370: 9782 02be bb6f 7dbd de68 fcbd a2c3 cabd
00000380: 8d34 79bd b869 e4bd a682 b3bd af64 9cbd
00000390: 2231 d4bd 02a1 ffbd f1bd 02be 0f13 8cbd
000003a0: 97f7 0dbe 688b f8bd a589 6cbd cc39 0bbe
000003b0: 0a60 0bbe bfd6 6abd 0062 c3bd 490a 55bd
000003c0: 77b4 54bd fd02 5ebd 2d07 94bd 57ae a9bd
000003d0: bef8 cdbd 3495 0fbe 3323 a9bd ede6 4ebd
000003e0: 52a0 eabd 720d c5bd 8633 3e3d 7b9e 49bd
000003f0: dc33 973b 51c8 4bbd 964f 83bd 4d79 9cbc
0.03577394 -0.01091467 -0.016241478 0.0033228754 0.014437867 0.014120428 0.026354378 -0.043097064
-0.018666418 0.04413254 -0.048499066 0.00069857226 0.019980794 0.048489742 0.04580558 0.004615223
0.0067045595 0.032941572 0.039923035 0.030928677 -0.040627908 -0.04191192 0.011017634 0.014714448
0.033307306 -0.047890622 -0.058474477 -0.036072366 -0.11378651 -0.13249137 -0.0027168484 -0.1311436
-0.09286042 -0.10068752 -0.066504635 -0.08638133 -0.12079449 -0.06682614 -0.07622656 -0.112083636
-0.06071533 -0.100524485 -0.21567072 -0.13090143 -0.17826891 -0.1219894 -0.09859038 -0.110164106
-0.07732974 -0.12769513 0.040343173 0.040039293 -0.055112682 0.03077381 -0.053999037 0.038812406
-0.011744345 -0.04767601 -0.031328894 -0.20886523 0.036487423 -0.023535 0.04272964 -0.034028187
-0.23352513 -0.03990681 0.016543938 0.009543104 0.044982992 -0.17637627 0.032129325 0.043178566
-0.046465952 -0.039851915 -0.17105037 -0.025602492 -0.016384656 -0.03157016 0.011825865 -0.0031695233
-0.039401434 0.047659375 0.039167948 -0.04956901 -0.013364593 -0.047976438 0.011948889 -0.022484804
0.03987328 0.016014745 -0.013606789 0.041608818 -0.029282952 0.017309686 0.02079839 -0.01962866
0.02045854 -0.0051176865 0.005797809 -0.01514476 0.110659115 0.111329615 0.058690127 0.045665186
0.1276169 0.059526186 0.13063954 0.07325719 0.100428514 0.045004487 0.07108995 0.08544428
0.12045947 0.09085057 0.040327504 0.05103348 0.061123878 0.09051171 0.11377978 0.11274602
0.13156591 0.10920016 0.08648934 0.05754603 0.092832275 -0.031451244 0.02753925 -0.015990477
0.039300527 -0.029005373 -0.0076967888 -0.018734176 -0.038170148 -0.046876498 -0.045547545 0.02657846
0.023509387 0.03868116 -0.011062872 -0.010453273 -0.045562565 -0.039842617 0.033346 0.0398126
-0.0025188252 0.03539836 0.03395806 0.010017108 0.008584507 0.048453625 -0.1223199 -0.07065709
-0.11577867 -0.05332483 -0.06688777 -0.0746404 -0.06977514 -0.103941515 -0.05989867 -0.08830269
-0.10725403 -0.057720233 -0.110734746 -0.14719728 -0.14123146 -0.07755828 -0.06830456 -0.05597342
-0.118748985 -0.072962336 -0.08990381 -0.09944985 -0.055943925 -0.10241647 -0.052938934 0.053741608
0.057041302 0.06271689 0.14150131 0.107035026 0.092671804 0.12388752 0.07914537 0.122285776
0.103548445 0.062026728 0.07804441 0.08668056 0.09671745 0.07407198 0.14854349 0.094981164
0.07146178 0.078023046 0.14477107 0.053707324 0.057416335 0.094771475 0.117803395 0.11238485
-0.1379501 -0.05877057 -0.14109941 -0.079787605 -0.12829606 -0.13310798 -0.13158989 -0.08412316
-0.0773397 -0.14938857 -0.13108812 -0.1271458 -0.06686113 -0.06449941 -0.14147833 -0.118802674
-0.10003422 -0.12705137 -0.14337099 -0.07398176 -0.12745129 -0.061874133 -0.12324689 -0.09900595
-0.060841132 -0.11152977 -0.087651536 -0.07636391 -0.10360934 -0.12481882 -0.1276777 -0.06839573
-0.1386398 -0.12135965 -0.057748456 -0.13596267 -0.13610855 -0.057333704 -0.095401764 -0.05201176
-0.051929917 -0.05420207 -0.07227931 -0.08285206 -0.100572094 -0.1402176 -0.08258667 -0.050513197
-0.1145636 -0.09621705 0.046435855 -0.049223404 0.0046143364 -0.049751583 -0.06411664 -0.01910081

conv3.bias f4 [16]
00000000: d727 043d c0cd 24bd d8ef 453c da86 34bd
00000010: 4d0b eebc 9859 a3bd 3351 b6bc 74d2 0b3d
00000020: 2d33 a4bd eedc 433d a833 34bd 69ff 61ba
00000030: 7091 e2bc 7938 84bc 4c91 22bd 7813 10bd
0.032264557 -0.04023528 0.012081109 -0.044073917 -0.029058123 -0.07976073 -0.022255516 0.03413625
-0.080175735 0.047818117 -0.043994576 -0.0008621128 -0.02765724 -0.01614021 -0.039689347 -0.035174817

l1.weight f4 [256, 400]
00000000: 9189 c9bc 4e26 e1ba 4e4b 013d 7bbf fa3c
00000010: 8e08 373c e390 8e3c c634 063c 1870 0dbd
00000020: 1ea3 7b3c 7e49 25bd 25ef 9bbc aa07 36bc
00000030: ae5d 283d 3acd 343d a6a0 733c 0252 283d
00000040: 8684 653c 3b8a e83c e543 b7bc 1ebb 4a3c
00000050: 462f 343c 0ec6 8eba bd9e e9bc f3d4 fa3c
00000060: 1b04 ed3c 5957 323d 4432 683c e6b2 93bc
00000070: 6979 3f3d 7aef e2bc 6c3e 88bc ea44 8ebc
00000080: a699 b53c a078 b8bc bd46 cabc da4f 2abd
00000090: 0395 1d3d 8d06 2e3d 0b2e 31bd fc2a 643c
000000a0: 4274 c93c d978 1d3d 4e67 19bd e6f4 04bd
000000b0: e2de b23c 94bc 20bc 46f2 8dbc 332a 2ebd
000000c0: 64f4 6b3c 0074 99ba 9c3f 17be 1d1a a4bc
000000d0: a076 d6bd 2281 ebbd 970a acbd 9be0 57bd
000000e0: 42ca aebd dd4e c3bd 11a9 7bbd b0ce 8dbd
000000f0: a487 cfbb 49c0 d7bc ae37 07be eddc 05be
00000100: b1ed 06be 3d3b 41bd bb28 67bd e42c bfbb
00000110: 44b9 0ebe 4953 57bd 7be9 cabd 4af5 26bd
00000120: 3f7c 9d3c 33a6 54bd 778d 5bbd 88df 43bd
00000130: e386 3abd b4cf 463c f615 c03c 47c6 013d
00000140: 109a 8fbb d196 043d f05c a6bb 18a1 013c
00000150: 7f9e 333d aab2 bbbc adb4 f4bc 609d 163b
00000160: 432e a0bc b0d1 b5bc da15 a93c 132d 193d
00000170: 07c7 2ebd 8e7c da3c b001 673b 4a8e aa3c
00000180: 820c 963c 42cb de3c 7125 453d 4058 923a
00000190: 4e88 bbbd fdd4 4ebd 52da 16be b2a4 b0bd
000001a0: c164 fcbd 40e7 0ebe 5c52 4ebd 54d3 91bd
000001b0: 99f2 01be 385e e0bd 882f 1ebd 3bc5 2c3d
000001c0: d774 b1bd ceac e8bd 5d55 c0bd 23a1 ddbc
000001d0: 22b5 3fbd dace a5bc 39af 88bd 9448 11be
000001e0: d0ee e5bd de43 853c ed90 afbc 9e3c 59bd
000001f0: 2acf 97bd 30e5 4bbe 444f 0abe a2aa 0dbe
00000200: 29f7 5fbd 1bbe f7bd e858 efbd 65ef f1bd
00000210: 40ff e9bd 001e c8bd 36eb 95bd 5ef8 17be
00000220: 74ae 9bbd 43fc 10be 4dff b5bd 7a03 13be
00000230: 5f31 fbbd ac3f 95bd b6d7 c3bd 0627 f3bd
00000240: b2ec 18be d45a 94bd 0f70 18be b81f cfbd
00000250: 13fc c7bd 561e 6fbd 5339 473d e866 ca3b
00000260: 63f5 4b3d 52b3 a33c 421b 27bd 8089 d3bb
00000270: 4c87 38bc 68b3 cfbb 306e 293b 53cb 483d
00000280: c215 ca3c 54a2 48bc 805a 7a3b aa06 943c
00000290: e3f8 d7bc 543d 653c f876 0e3c 6384 2dbd
000002a0: 0abc 19bd e107 373d 2c8c 42bc 00b9 a139
000002b0: 6311 49bd dac4 b33c 5365 033d d6f2 063c
000002c0: 4b10 38bd 243f abbb 5b28 f83c 26ee 39bd
000002d0: 8da6 ebbc d6e1 3c3c 7901 0f3b f9ba 6d3b
000002e0: bc9f 44bd 9d3c 88bc 729a 17bc 72fd 823a
000002f0: b36b 973c 7eb2 243c 75dd eabc 766f 2b3d
00000300: 67b7 50bb c22c 283d a74b b63c 355f 4dbd
00000310: 4ee7 473c e291 043d 02ba 38bd 1a60 78bc
00000320: bbd3 f33d 56d0 ed3d 5eb7 503d 6a92 083e
00000330: 6358 0b3e c4f4 573d fb1c b53d 5ed5 ad3d
00000340: 4032 cb3d da77 103e b924 ba3d f901 0e3e
00000350: 66d8 153e fdf7 093e ebbc e73d e0a0 813d
00000360: 6056 533d fb65 063e 0d71 0d3e e5c3 aa3d
00000370: f64b 6b3d 6f8b 873d c583 bc3d 2b74 803d
00000380: 39a0 a83d c71b cabd dee4 d1bd c1fc 81bd
00000390: af99 7cbd a704 15be fe3e afbd cf0b 70bd
000003a0: 9b69 18be 1ac4 87bd 3f70 12be d814 8abd
000003b0: 26b3 adbd c586 aebd 1a47 b4bd f558 c4bd
000003c0: fefc f0bd b091 cdbd 1bde 91bd cce0 b6bd
000003d0: d4ed 87bd 234b c83c 4aa0 18be 13b7 97bd
000003e0: b30b 93bd 0b61 19be a82f 9cbd 7775 e4bd
000003f0: 25da f0bd a28d 973c a8db aabb ec46 513c
-0.02460173 -0.0017177553 0.031565957 0.030608883 0.011171473 0.017403072 0.008191293 -0.03453073
0.015358714 -0.04035329 -0.019034931 -0.011110226 0.041104965 0.04414103 0.014869845 0.041093834
0.014008647 0.028386226 -0.022371242 0.012373714 0.010997599 -0.0010892765 -0.028518075 0.03061912
0.028932622 0.043540332 0.0141721405 -0.018029641 0.046746645 -0.027702082 -0.016631328 -0.017366845
0.022167992 -0.022518456 -0.024691934 -0.04158006 0.038472187 0.042486716 -0.0432568 0.013926264
0.024591569 0.038445327 -0.037452035 -0.032460116 0.021834794 -0.0098105855 -0.017327439 -0.042520713
0.014401529 -0.0011707544 -0.14770359 -0.020031983 -0.10471845 -0.114992395 -0.08400457 -0.052704435
-0.08534671 -0.09536526 -0.06144053 -0.06924188 -0.0063333083 -0.026336806 -0.13204834 -0.13072558
-0.1317661 -0.047175635 -0.056435328 -0.005834209 -0.1393786 -0.05256966 -0.09907814 -0.04076127
0.019224284 -0.051916312 -0.05360171 -0.047820598 -0.045538794 0.012134481 0.023447972 0.031683233
-0.0043823794 0.032370392 -0.005076997 0.007911943 0.043852326 -0.022912342 -0.02987131 0.0022981986
-0.01955331 -0.022194713 0.020640302 0.0373965 -0.042670276 0.02667072 0.0035248809 0.020819802
0.018316511 0.02719653 0.04813141 0.0011165217 -0.091568574 -0.05049609 -0.1473172 -0.08625163
-0.12323905 -0.13955402 -0.050371513 -0.07120386 -0.126902 -0.10955471 -0.038619548 0.04218028
-0.086648636 -0.11361085 -0.09391282 -0.027054375 -0.0468036 -0.020240236 -0.06674046 -0.14187843
-0.112271905 0.016267713 -0.02143141 -0.053036325 -0.0741256 -0.19911647 -0.135068 -0.13834623
-0.05467907 -0.120968066 -0.116868794 -0.11813239 -0.11425638 -0.09771347 -0.073202536 -0.14840838
-0.07601634 -0.1415873 -0.088865854 -0.14356795 -0.12265276 -0.07287535 -0.09562628 -0.118726775
-0.14934042 -0.072438866 -0.14886497 -0.10113472 -0.09764876 -0.05837854 0.048638653 0.006176818
0.049794566 0.019982968 -0.04079748 -0.0064556003 -0.011262726 -0.0063385256 0.002585303 0.04902203
0.024668578 -0.012245733 0.0038200915 0.018069584 -0.026363796 0.013991673 0.008695357 -0.042362582
-0.037532844 0.04468525 -0.01187424 0.0003084615 -0.049088847 0.021944452 0.032079052 0.008236608
-0.044937413 -0.005226033 0.03029268 -0.04539313 -0.028765941 0.011528453 0.0021820946 0.0036274774
-0.048003897 -0.016630465 -0.009253131 0.0009993745 0.018483972 0.0100523215 -0.028670052 0.041854344
-0.0031847598 0.04105831 0.02225287 -0.050139625 0.012201143 0.032365687 -0.045099266 -0.015159631
0.11905619 0.116120026 0.050956123 0.13337103 0.13607936 0.05272366 0.08843418 0.08487962
0.09921694 0.1410822 0.090890355 0.1386794 0.1463333 0.13473506 0.1131533 0.063295126
0.051596045 0.1312484 0.13812657 0.08338145 0.05744549 0.06618392 0.092048205 0.06272157
0.08233685 -0.09868579 -0.10248731 -0.06347037 -0.06167 -0.14552556 -0.08556937 -0.05860501
-0.14884035 -0.066292 -0.14300631 -0.06742257 -0.084814355 -0.08521799 -0.08802624 -0.0958728
-0.117670044 -0.10037553 -0.071224414 -0.08929595 -0.06637159 0.02444989 -0.14904895 -0.074079655
-0.07179966 -0.14978425 -0.07626277 -0.11155217 -0.11760358 0.018500153 -0.0052141733 0.012773257

l1.bias f4 [256]
00000000: 7068 08bb c889 47b9 bf82 36bb b6d2 dbbd
00000010: fb01 04be 7541 81bd bc91 09be 9f2a bdbd
00000020: 2b9d 4dbb e4d4 34bd 3012 9bbd 8b7d 6ab8
00000030: c062 0bbe 3e79 fcbb bd59 bebd ea26 0abd
00000040: 0c71 02be 99bb 2cbd 5bd2 38b8 ab4f d8bb
00000050: e38f 0ebd be06 63bc d4c6 11be 6f33 cabd
00000060: 7220 acba 1889 04bc 6db3 9ab9 5c81 92bc
00000070: 0c5e 3cba b5ee f8bd da7c b4b9 4032 6abc
00000080: fac0 13bd edd8 d4bc 36f1 8fbc bc35 5cbd
00000090: 441d d0bc d834 01be be88 3abd e9f3 96bd
000000a0: b0d5 51ba 38e3 85bd fc38 95b9 a9a7 f6bb
000000b0: ef09 feba 27a4 13bc 3a6b dbbd b553 7ebc
000000c0: 89e9 59bd f5e6 50bd f500 8fb9 d9be 93bd
000000d0: 0143 5ebd f063 d5bc feb0 90bb 46a3 96bc
000000e0: 55eb afbd da81 c9ba 2d77 a9bc efcc d3bd
000000f0: 49c3 04be 4c3c 68b9 3389 daba 14bf c5bd
00000100: fae8 bebc d91b 84bd 9597 eabb 43df e3bc
00000110: 00d3 d1bd 02c1 92bc 13d0 17bd f8a0 11be
00000120: 23f7 11be 75eb 82bd 9742 18be 591c e3bd
00000130: 0bd5 dabb eb49 88ba e518 02bd 51dd 9abd
00000140: a681 40bb 5ab4 0bbd a554 07bd a2e4 fbbc
00000150: 673d f8bd 914e 1dbd 74c3 36bc 2546 dfb9
00000160: ff8e 29bd 80ff 80bc 5020 a2bc 6775 0abb
00000170: ecc2 04be a214 0bbe f2d6 f3ba 7984 b7ba
00000180: 45cb 50bd 3eb2 28bd 0f1f 1bbc 48a2 3abc
00000190: f150 07be e6ac f2bd 8137 13bd dac1 c3bc
000001a0: 8ba2 34bd 73c3 aeb7 9cf1 8ebd 68ae 84bd
000001b0: b586 bebd 04e0 03be c4cd 44bb c648 a0bd
000001c0: a6de 03be d659 a7bd 40cf f1bc 24eb 9ab8
000001d0: ac63 5dbc 7c26 abbd 5540 1eba 8359 7cb9
000001e0: dddf 14be 9012 b0bd bada e2bc 7413 87b9
000001f0: b108 06be 8cf7 1fbd f454 5ebc e2af 46bd
00000200: 52b3 9ebd d6a2 99bd ea1f 04bd cf72 83bd
00000210: 407e c2b9 aab8 19bc 5d87 53b8 abbc bbbd
00000220: d739 31bd 9360 30ba 7a80 63b9 74b8 8dbd
00000230: f940 22ba 9368 6eb9 a637 9abc bca4 89bd
00000240: e811 5fbc 6309 ecbc f246 89bd 3539 0dbe
00000250: 1036 9abc e0fd 8cbc 5235 11be 2b67 3cbd
00000260: 1571 27bd a269 e3b9 0802 40bd 0cc2 1dba
00000270: 66e2 99bd 8092 5aba 317c 70ba d224 18bd
00000280: c470 87ba 4092 72ba 2c2a 1fbc 5371 adbc
00000290: d4fc 9fbd bc79 0fba 702e f3b9 038b 4bbd
000002a0: 9448 88bc 0efe 21bc 1ce7 77b8 af22 6cbd
000002b0: 99f3 0cbb 01de 2bba 6e7d bdbd 6ed5 01b9
000002c0: e484 bbbd 62d6 d6bb c81a 07be b3d2 f2bc
000002d0: 925f 0dbe d86a a5bd 9723 a7bc 9e6f 59bd
000002e0: 0581 4bbd 96d8 22bd f0a7 56ba 2765 ffbd
000002f0: 8712 11bd 2b36 18bd 9397 bdb9 8765 feb8
00000300: c80e cebd fc70 04bc 381e 5ebb 77b2 3ebd
00000310: 3797 a3bc 1b78 14be 7825 16be aae8 74bd
00000320: f635 3dbd 95f4 89bc 6afd b2bc a7b3 01be
00000330: 540f d9ba f83f abba 9222 fcbd ac51 eabd
00000340: 99e7 a5b8 564d 31bb 3cd1 cebd 52ce 45bd
00000350: 0f2f 84bb 1eb6 c8bd 4e48 dfba e053 aebd
00000360: 5486 2cbb 1c6b d1bc 96a6 09be e9fb bab9
00000370: b0e7 8db8 c717 20ba c814 dcba 905a dfbd
00000380: 0e3b 52b9 de28 16bd c834 41bd 9e95 02bd
00000390: 76cd 99bd d29a e6b9 0d8c afbb 0366 02bd
000003a0: 6086 9dbd 8b49 bfbc 7db5 07bd e97f 77bd
000003b0: 5634 fdbc 60ed 81bc 1f06 d7b9 eefb 85bd
000003c0: 9709 c9bd ebc2 13be b0a0 25b9 3bc3 94b9
000003d0: 0a97 9ab9 124c 6cbd cf42 a7b7 d3bd 4fbd
000003e0: 6652 c0bd 368b 03be fa29 01be 4293 17bd
000003f0: a8ea 13be fbc7 96bd 5313 82bd bad6 a1bc
-0.0020814203 -0.00019029446 -0.0027848927 -0.10733549 -0.1289138 -0.06311313 -0.134345 -0.09236645
-0.0031374197 -0.04414834 -0.07571828 -5.590687e-05 -0.13611889 -0.007704883 -0.0929446 -0.033728518
-0.12738436 -0.042171095 -4.4064927e-05 -0.006601294 -0.03480519 -0.013856588 -0.14236003 -0.098730914
-0.0013132228 -0.008089326 -0.00029506852 -0.017883949 -0.0007185645 -0.12154905 -0.00034425297 -0.014294207
-0.03607271 -0.025982345 -0.017571073 -0.053762183 -0.02540458 -0.12617815 -0.045540564 -0.07370741
-0.0008004559 -0.06537479 -0.0002846195 -0.007527311 -0.0019381623 -0.009011305 -0.10713811 -0.015522887
-0.053201232 -0.051001508 -0.00027275798 -0.07214136 -0.05426312 -0.02604863 -0.0044156304 -0.018388402
-0.08589808 -0.0015373782 -0.02068671 -0.10341822 -0.1296512 -0.00022147706 -0.0016672969 -0.09655586
-0.023304451 -0.06450624 -0.0071591833 -0.02781642 -0.10245323 -0.017914299 -0.03706367 -0.14221561
-0.14254431 -0.06392566 -0.14869152 -0.11089391 -0.0066782287 -0.0010398006 -0.031762023 -0.07561744
-0.0029374151 -0.034107544 -0.033039708 -0.030748669 -0.121210866 -0.038405005 -0.011154998 -0.00042586136
-0.041396137 -0.015746832 -0.019790798 -0.0021127106 -0.12964982 -0.1358209 -0.0018603487 -0.0014001272
-0.050975103 -0.04118561 -0.009467854 -0.01139123 -0.1321447 -0.11849384 -0.035941605 -0.023896147
-0.044100326 -2.083343e-05 -0.06979677 -0.06478578 -0.09303037 -0.12878424 -0.0030029872 -0.078263804
-0.12877902 -0.08171432 -0.02951777 -7.3870906e-05 -0.013512533 -0.0835695 -0.0006036808 -0.00024065938
-0.14538522 -0.085972905 -0.027692188 -0.000257637 -0.13089253 -0.03905444 -0.013570059 -0.04850758
-0.077490464 -0.075017616 -0.032256998 -0.064183824 -0.00037096627 -0.009382406 -5.0432387e-05 -0.09166845
-0.04326805 -0.0006728258 -0.00021696268 -0.06919947 -0.0006189491 -0.00022736406 -0.018825363 -0.06720874
-0.013615109 -0.02881307 -0.06702985 -0.13791354 -0.018824607 -0.0172109 -0.14180496 -0.045996826
-0.040879328 -0.00043375517 -0.046876937 -0.000601799 -0.07513885 -0.000833787 -0.00091737794 -0.03714449
-0.0010333289 -0.00092533603 -0.009714644 -0.021172201 -0.07811895 -0.0005473157 -0.0004638317 -0.04969312
-0.01663617 -0.0098872315 -5.9104626e-05 -0.057650264 -0.00215075 -0.00065562135 -0.092524394 -0.00012381907
-0.09156206 -0.006556318 -0.1319381 -0.029641485 -0.13805988 -0.080770195 -0.020402713 -0.053084962
-0.04968359 -0.039757334 -0.0008188477 -0.12470465 -0.03541806 -0.037161034 -0.0003616182 -0.00012130575
-0.10061413 -0.008083578 -0.0033892523 -0.046556916 -0.019969566 -0.14498942 -0.1466273 -0.0597922
-0.04619404 -0.016840259 -0.021849353 -0.12666188 -0.0016560354 -0.0013065329 -0.12311281 -0.11441359
-7.9109515e-05 -0.0027054152 -0.10098502 -0.048292466 -0.00403393 -0.09800361 -0.0017035098 -0.08512092
-0.0026325183 -0.025563769 -0.13442454 -0.00035664372 -6.766559e-05 -0.0006107059 -0.0016790861 -0.10905945
-0.0002004916 -0.036660068 -0.047169477 -0.031880967 -0.07509892 -0.0004398437 -0.0053572715 -0.031835567
-0.076916456 -0.023350498 -0.033132065 -0.06042472 -0.030908745 -0.01586026 -0.00041012556 -0.065421924
-0.09816282 -0.14429824 -0.00015795487 -0.00028374218 -0.00029485702 -0.057689734 -1.9939062e-05 -0.05071814
-0.09390716 -0.12846074 -0.12613669 -0.03700567 -0.14444983 -0.07362362 -0.06351342 -0.01975571

out.weight f4 [3, 256]
00000000: 6628 e0ba 0351 7b3c 48fb 45bd 2263 243e
00000010: 125c 143e 24c6 1f3d 563f 58bd ed77 893d
00000020: bb68 763c 35ed 1b3e d058 3d3e 6f33 4a3d
00000030: c735 8bbd 8d58 05bc 7f22 e73d 5f66 523e
00000040: d0cf bc3d 9573 183e c73c 0e3d 5915 24bd
00000050: 849f 3d3e fe2f 183d 4ee3 38bd ac8d 273d
00000060: f66c 05ba 4198 b9bd 88ac 54ba 09f8 44bd
00000070: 2ce9 2e3c e8ab 603d 8254 163d c0a2 f6bc
00000080: 6c75 17bd 664f 573d 4704 b3bd 5855 983d
00000090: 501d de3d 84fd 19bd 900b 92bc cde7 bd3d
000000a0: 4ef3 e83b 4d07 493d 84df 9a3b 60b1 d739
000000b0: 9745 253b 3fc2 ef3d b19d 853d 59c5 d7bc
000000c0: 2c66 f83d eceb 1e3e 4585 6e3d 0877 703d
000000d0: a66a 2a3d 9a4f 103d 13a7 31bd 8105 8cbd
000000e0: ccc5 143e 6f9e 043d cb34 dc3c 3eb6 033e
000000f0: 0b93 b83d a481 863b 9f09 fd3b 54f1 9a3d
00000100: 18fa 4a3c 02ec 253e 4783 c43c 81e7 40bd
00000110: 2d76 853d 2bae 98bd 7396 073e 4b58 edbd
00000120: 76dc 14be 13d8 2b3d 3b66 333d 0086 f23d
00000130: ed73 29bd 8419 47bd 7339 ff3d 40c6 4c3e
00000140: 5976 88bc 7c91 b6bc 9860 163c 81cc e43d
00000150: 157f 073e f32d 1b3e 50fe 643c 904c eb3c
00000160: 1680 69bc 4984 dc3d 0898 19bd 7b19 823b
00000170: fcaf d9bd 54a6 7fbd 168d 543d 1d26 f13c
00000180: 8f90 6c3d f91e 1abd bf34 b5bb e25e 3fbd
00000190: 27ce 01be 9086 b3bd 0db7 7a3d 1d91 84bd
000001a0: 6c5a 363d 0910 5d3d 69c5 0d3e 067d 983d
000001b0: 10a5 163e 1972 f83d 6177 253c 73ea 693d
000001c0: f419 1ebd f6f7 c43d 053d 3abc cbf1 2c3d
000001d0: 76fe 33bd c237 553d ad92 c63c f2f4 053e
000001e0: 7694 d4bd cc79 6e3d 1ed1 34bd 9c17 813d
000001f0: 3736 fbbd 21f6 9bbd ef33 55bd fc50 b43c
00000200: c23a 183e 6c11 1c3e 362f 5a3d b7cb 233e
00000210: 04a2 d83d e03b 023e 15f9 0d3c 8eec 233e
00000220: 6ac2 22bd e05f 063d 892f 2eba 0d10 743d
00000230: 39d6 e6bb 0a21 fb3b 62cd 943d a519 823d
00000240: e070 153b f636 9d3b 07be 233e 76bd 9abd
00000250: 04be 1fbe e00b 663b 79b6 423d 5d92 8ebd
00000260: 536b 0e3e 7116 fd3d d7d9 063e 022d 5a3c
00000270: ab9e 623d ea4d 7fbd e0f6 b23c 9ae7 ebbc
00000280: 23a7 e93c d18d 623c 98f0 06bd 1240 4e3d
00000290: 463f 143e e1c1 bd38 e735 b93b 60c9 ad3c
000002a0: 1aed 01bd 33a7 28bd afe5 343d 8b78 913d
000002b0: 43cc 1d3d dc8c d63c c8bc a83d f2e1 a93c
000002c0: 312d 343d fe39 763d 945f 01be 3205 4a3d
000002d0: ce5c 4c3d 4bfb 7c3d 7e2e 4cbd 44cb 8c3d
000002e0: fcb8 1f3e a069 5a3d d04d 093b b458 30bd
000002f0: 72b0 aebc 9068 d5bc b701 b43a e985 683b
00000300: d6b1 803d 07a5 afbc 706d a1bc b87a 553d
00000310: 6867 053c 5827 48bd 8c71 0dbe 3084 1a3e
00000320: ca82 99bb de7c 743c 3064 8cbb fad0 a53d
00000330: 160e d63c 5da2 0bbd da3d 2b3d 5a78 bb3d
00000340: 73d9 913b b330 ba3c 067c 253d 0832 a3bc
00000350: b9c2 f03c cd03 8ebd 93aa 8d3c bb01 3f3d
00000360: a660 5a3d 0e56 2c3c 842c 23bd 947d 3b3c
00000370: c2ca fb3c e378 18bb dec1 273d d843 0e3e
00000380: 5804 1e3c b4e6 aa3c e8e4 3bbc 426b 05bd
00000390: 1ee3 d13d 7b05 453b 75e8 0ebc 8fdb 00bd
000003a0: b9d4 b13d 1274 543d 22ff 393e 7649 523d
000003b0: a551 6abc c066 fcba ef46 be3c 2e16 043e
000003c0: 7637 f73d 90cd 1cbd b1ce 0abb 2c09 863c
000003d0: ef5f e13b a270 c53d 872f 3f3d b7af 2f3d
000003e0: d62e 0e3e 186b 8bbd 32ec 21be 9966 71bd
000003f0: 4e13 dbbd 94e9 cb3d f43b 1e3e 5de8 5abd
-0.0017101883 0.015339139 -0.048335344 0.16053441 0.14488247 0.03900732 -0.052794777 0.06712327
0.015039618 0.15227206 0.1849091 0.049365457 -0.067973666 -0.008138788 0.112858765 0.20546864
0.092193246 0.14887841 0.03472593 -0.04005942 0.18517882 0.037155144 -0.04513865 0.040906593
-0.0005089784 -0.09062243 -0.00081128674 -0.048088107 0.01067571 0.054851443 0.036701687 -0.030106902
-0.036977217 0.052565955 -0.0874105 0.07438153 0.10845435 -0.037595287 -0.017827779 0.09272728
0.0071090823 0.04907923 0.004726352 0.0004114015 0.002521848 0.117069714 0.06524218 -0.02633922
0.12128863 0.15519685 0.058232564 0.058707267 0.041605614 0.035232164 -0.043372225 -0.06836987
0.14528579 0.032377657 0.026880642 0.12862489 0.09012421 0.00410481 0.007722094 0.07565561
0.012388729 0.16203311 0.02398838 -0.04709578 0.06516681 -0.07455095 0.13240986 -0.11589106
-0.14537224 0.04195411 0.043798666 0.11841965 -0.04137032 -0.048608318 0.124621294 0.19997501
-0.016657995 -0.02228617 0.009178303 0.111718185 0.13232072 0.15154247 0.013976648 0.028723031
-0.0142517295 0.10767419 -0.037498504 0.0039703227 -0.106292695 -0.062414482 0.051892363 0.02943712
0.05775505 -0.037627194 -0.0055299695 -0.046721347 -0.12676297 -0.087659 0.061209727 -0.06472991
0.044519827 0.05397037 0.13844837 0.07445721 0.14711404 0.121311374 0.010099263 0.057108354
-0.03859897 0.09617607 -0.011367087 0.04222278 -0.043943845 0.052055128 0.024239862 0.1308172
-0.10379879 0.058221623 -0.044144742 0.06303331 -0.122662 -0.07615305 -0.05205148 0.022011273
0.14866164 0.15241021 0.05326768 0.1599568 0.10577777 0.12718153 0.008665343 0.16008207
-0.03973619 0.032806277 -0.00066446565 0.05958562 -0.0070445803 0.0076638507 0.07265736 0.063525476
0.0022802874 0.0047978116 0.15990458 -0.07555668 -0.15599829 0.0035102293 0.0475373 -0.0696151
0.13908128 0.12357796 0.13169037 0.013316395 0.0553271 -0.062330164 0.021846235 -0.02879696
0.02852208 0.013827757 -0.03294429 0.05035407 0.14477262 9.048335e-05 0.0056521776 0.021214187
-0.03172026 -0.04117508 0.044164356 0.0710307 0.038524877 0.026190214 0.08239132 0.020737622
0.04398841 0.0601139 -0.12634116 0.04932136 0.049893193 0.06176309 -0.049849026 0.06874707
0.1559791 0.053323388 0.002095092 -0.043053344 -0.02132437 -0.026050836 0.0013733421 0.0035480207
0.062839195 -0.021440996 -0.019705504 0.052118987 0.00814233 -0.048865646 -0.13812846 0.15089488
-0.0046847807 0.014922349 -0.004284404 0.080965 0.026129764 -0.03409039 0.041807033 0.091538146
0.004450971 0.0227283 0.04040148 -0.019921318 0.029389726 -0.06934319 0.01729325 0.04663251
0.053314827 0.010518564 -0.039837375 0.011443514 0.03073633 -0.0023265413 0.04095637 0.13893068
0.00964459 0.020861961 -0.01146815 -0.032572992 0.10248397 0.003006308 -0.008722414 -0.031459387
0.08683152 0.051868506 0.18163732 0.05133959 -0.014301692 -0.0019256696 0.023227183 0.12899086
0.12071125 -0.038281977 -0.0021180327 0.016361795 0.0068778913 0.09640624 0.046676185 0.042892184
0.13885054 -0.06807536 -0.15812758 -0.058935735 -0.106970415 0.09956661 0.15452558 -0.053444255

out.bias f4 [3]
00000000: e13a 563f fc16 663f 94e9 613f
0.8368359 0.8987882 0.88247037
